sd_net_whole.pth (torch_old, 263851 bytes, 10 tensors)

weight f4 [6, 3, 5, 5]
000000 1b 80 9b bd e8 5d 4a 3d 4e db a2 bd e4 fb bb bd
       -0.075927936 0.049405962 -0.07951985 -0.09178904
000010 c0 06 be 3b 4e 41 04 bd 48 5b 1b bc 88 67 17 3d
       0.0057991445 -0.032288842 -0.009482212 0.03696397
000020 70 86 2b 3d 42 36 1f bd c0 96 7c 3c 4f 3b 84 bd
       0.041876256 -0.038870104 0.015416801 -0.06456625
000030 b2 c2 86 3d e2 26 c3 3d a0 64 98 bd e2 35 51 bd
       0.06580104 0.09528901 -0.07441068 -0.051076777
000040 48 5f 14 bc 9c 79 e6 bc ec 06 df bc c4 66 26 bd
       -0.00905592 -0.02813416 -0.02722498 -0.04062535
000050 02 ba 29 bd 08 95 30 3d 1e de db 3d 58 57 fa bc
       -0.041437156 0.043110877 0.10735725 -0.030559227
000060 c4 31 2b bd e8 bb 73 bc 43 7e 7b bd 28 92 07 bd
       -0.041795507 -0.014876343 -0.06139971 -0.03309837
000070 b0 6f eb 3c c7 28 9f bd fc bc ab bc 15 7c 62 bd
       0.02873978 -0.077714495 -0.020964138 -0.055294115
000080 52 20 33 bd 28 2c 66 3d 20 8c ad 3b f0 27 ed 3c
       -0.043731995 0.056194454 0.005296245 0.028949708
000090 1b 06 9d bd b4 d0 61 3d 80 b7 d6 3d c0 5e e3 3b
       -0.0766718 0.055130675 0.104842186 0.0069387853
0000a0 40 a3 a9 3d af ea 80 bd ce 9c d2 3d 12 b4 ab bd
       0.082830906 -0.06294762 0.10283814 -0.08383955
0000b0 d8 e6 2f bc ce 0b 85 3d 23 7e 65 bd 66 12 cb 3d
       -0.01073619 0.06496392 -0.056028496 0.099156186
0000c0 32 bb a1 3d d0 78 26 3d 42 76 7e bd 8e 4e 14 bd
       0.07897033 0.04064256 -0.0621245 -0.036207728
0000d0 3a a6 d7 3d 36 85 8d 3d c4 40 44 3d b3 a1 de bd
       0.10529752 0.069101736 0.047913328 -0.108706854
0000e0 54 4c 4c 3d 1c 97 e1 bc de ef 88 3d ac be 98 bd
       0.04987748 -0.027537875 0.06686376 -0.07458243
0000f0 d8 ae 09 3d 52 7d eb 3d 6a ea 9a bd 12 59 aa 3d
       0.03361401 0.11498512 -0.07564242 0.0831777
000100 e1 96 e7 bd cc 54 1b bd 00 bb c4 ba a1 61 d4 bd
       -0.11308075 -0.037922665 -0.0015009344 -0.10370184
000110 70 12 8f bb 57 51 e3 bd fd a7 de bd 9d c4 d2 bd
       -0.0043662116 -0.11099499 -0.10871885 -0.10291407
000120 92 c0 9d bd 42 0f 11 bd 9e 0a 7c bd 64 b3 94 bc
       -0.077027455 -0.03541494 -0.061533563 -0.018151946
000130 08 c3 8c 3d 80 ab c9 bc ba 0a df bd ca aa d3 3d
       0.06873137 -0.02461791 -0.10890718 0.1033531
000140 30 9b 4d 3d 95 b3 bc bd d4 8b ca bc ae 69 db bd
       0.050196826 -0.0921394 -0.024724878 -0.10713516
000150 ee 8f ce bd 84 93 aa 3d d4 57 bd 3d fe f0 00 bd
       -0.10086046 0.083289176 0.092452675 -0.031479828
000160 b1 94 76 bd f4 b8 b7 3d fe 50 ba 3d 6c 0e ab 3d
       -0.060200397 0.08970824 0.09097479 0.0835236
000170 e4 b3 73 3d 63 23 76 bd 00 10 ea 37 30 33 13 bc
       0.05949773 -0.06009234 2.7902424e-05 -0.008984372
000180 f0 78 ce bc e0 21 35 bd 60 0a 6e 3d cc 56 ca bd
       -0.025204152 -0.04422176 0.058115363 -0.098798364
000190 d1 8d eb bd 90 ae 45 3c d8 a3 a5 3d b0 7a ab 3b
       -0.11501659 0.012065545 0.08087891 0.0052331313
0001a0 00 de b7 3c 8c 06 38 3d f3 d2 c0 bd 8c 00 35 3d
       0.022444725 0.04492812 -0.09415235 0.044189975
0001b0 80 e3 cc ba 6e 2a d3 bd 51 5f d3 bd c9 d5 c5 bd
       -0.0015631765 -0.10310827 -0.103209145 -0.09659917
0001c0 10 ae 5b 3d ec 98 94 bc 40 fd 60 3c f0 b6 e6 bb
       0.053632796 -0.018139325 0.0137322545 -0.007040851
0001d0 c8 fd d9 3c ad 19 d9 bd e0 9a e3 bc 5c 3f bf bd
       0.02661027 -0.106006004 -0.027783811 -0.09338257
0001e0 28 35 e9 bc 40 8b 92 bd 4b 36 d4 bd f8 92 1b 3d
       -0.02846773 -0.07155466 -0.10361918 0.037981957
0001f0 a4 c6 ef bc 60 84 bf 3c 00 e2 44 3b bb b2 bc bd
       -0.029269524 0.023378551 0.0030041933 -0.09213778
000200 c4 24 49 3d 56 c1 18 bd 48 a8 c6 bd 5c e7 aa bd
       0.049107328 -0.037293755 -0.09700066 -0.083449095
000210 b4 e3 d2 bc ca 88 d3 3d a8 5a d0 3c 52 63 32 bd
       -0.025743343 0.10328825 0.025433853 -0.04355175
000220 75 97 6e bd 3c b5 9c 3d c6 b6 cf bd 01 fb 98 bd
       -0.05824991 0.07651755 -0.10142283 -0.0746975
000230 c0 02 ef bb 6e 10 bc bd 94 ff 93 bd 7a f7 31 bd
       -0.007294029 -0.09182821 -0.07226482 -0.043448903
000240 8a 3d 6d bd c0 ed 5f bb 80 04 cf ba 92 54 a7 3d
       -0.057920016 -0.003416881 -0.0015794188 0.081704274
000250 f4 10 93 bd 3a 3a 89 bd 64 50 d5 3d 48 45 7a bd
       -0.07180968 -0.06700559 0.10415724 -0.061101228
000260 2f e5 c1 bd d0 fe 89 3b 48 63 37 bd ba 32 05 bd
       -0.094675414 0.004211284 -0.044772416 -0.03251908
000270 d6 de 9b 3d f0 2f d2 3d 00 0b 45 ba 00 fa b1 b9
       0.07610862 0.102630496 -0.0007516593 -0.00033946335
000280 18 23 8e bd b0 10 52 3c 1d 22 e6 bd 44 74 ea 3d
       -0.06940287 0.012821361 -0.11236975 0.11447957
000290 90 31 ab bd 38 29 ae 3d 34 30 cc 3d f4 40 87 bd
       -0.08359063 0.085039556 0.099701315 -0.06604186
0002a0 14 ce da 3d 10 3d 5f 3c ec c3 9d 3d 88 96 9b 3d
       0.106838375 0.013625398 0.07703385 0.07597071
0002b0 e6 ee 36 bd c8 5e 13 3d c4 9c 04 3d 60 0a 4c 3c
       -0.044661425 0.035979062 0.032376066 0.0124536455
0002c0 69 ff 5f bd e0 54 9c bd e8 c8 a5 bc c0 5d ef bb
       -0.054686937 -0.07633376 -0.020237401 -0.007304877
0002d0 c4 2b 84 bd 8e c0 21 bd 8d d2 be bd b2 d5 97 3d
       -0.0645366 -0.039490275 -0.09317503 0.07413806
0002e0 f4 69 73 3d dd f9 79 bd 20 42 80 3c 0c 9a cc bc
       0.059427217 -0.061029304 0.01565653 -0.024975799
0002f0 55 14 bf bd 80 46 af bc 58 8e 55 bc 95 18 86 bd
       -0.0933005 -0.021395922 -0.013034426 -0.065476574
000300 d0 db ce bb 00 b1 a2 ba 40 48 24 3b 24 2d de bc
       -0.006312825 -0.0012412369 0.0025067478 -0.027121134
000310 d4 1f e9 bc c0 12 55 bd aa 82 3f bd 42 47 20 bd
       -0.02845756 -0.052019835 -0.04675547 -0.039130457
000320 1d 51 71 bd a5 05 d3 bd 38 f3 9e 3c 8c 7b ab bd
       -0.058915246 -0.10303811 0.019403085 -0.08373174
000330 30 dd 1c 3c 30 b6 03 3d ec c3 98 3d 7b 4e a3 bd
       0.00957422 0.03215617 0.07459244 -0.07973953
000340 2c 04 39 3d ce 9c 57 bd 74 77 d1 bd c8 c0 72 bc
       0.045169994 -0.052639775 -0.10227862 -0.01481647
000350 2c 8a b5 3d 0a 03 8d 3d 90 ad 73 3c 44 73 9f bc
       0.08864245 0.06885345 0.0148729235 -0.019464143
000360 b8 68 33 bc cd fb eb bd c4 bb 26 bd 80 74 a5 bd
       -0.01095026 -0.115226366 -0.04070641 -0.08078861
000370 f0 61 56 3c 3a 0d 28 bd f8 57 20 3d d4 af 26 bd
       0.013084874 -0.04102824 0.039146394 -0.040695027
000380 40 df 87 3b 8f 42 b9 bd 7c a3 2f 3d d8 21 a7 3c
       0.0041464865 -0.09045898 0.04288052 0.02040188
000390 69 ab d1 bd 94 63 67 3d db 1a d3 bd d1 e5 c9 bd
       -0.10237772 0.05649145 -0.10307857 -0.09858287
0003a0 26 26 8c 3d ce 4d eb bd 6b 01 92 bd 34 77 d7 bc
       0.06843214 -0.114894494 -0.07129177 -0.026301958
0003b0 10 a3 de bc f7 c1 d2 bd 9a 73 14 bd b1 59 e0 bd
       -0.027177364 -0.10290902 -0.03624306 -0.10954607
0003c0 70 3a 81 bd d0 5f f4 3b e8 3f 23 bd a0 27 3f bc
       -0.06309974 0.007457711 -0.039855868 -0.011667162
0003d0 22 e2 9f bd c3 b0 68 bd b4 ff 2a bd fc 92 a1 bd
       -0.07806803 -0.056809198 -0.041747764 -0.07889363
0003e0 4e 3f 42 bd 78 1d 93 3c 04 37 b8 bd 6c 91 98 bc
       -0.047423653 0.017958388 -0.089948684 -0.01862403
0003f0 be 57 ac bd 70 0e 29 3c 00 ae ed 3c 54 54 b3 3d
       -0.08415173 0.010318384 0.029013634 0.08756319

bias f4 [6]
000000 e2 21 8a bd 40 1f 77 3b 61 43 86 bd 38 c1 98 3c
       -0.06744744 0.0037707835 -0.0655582 0.018646821
000010 98 72 24 3d e6 d7 07 bd
       0.040148348 -0.03316488

weight f4 [16, 6, 5, 5]
000000 e0 6a 8b 3d 84 84 6e 3d c8 9c f2 3c 24 4a 0f 3d
       0.06807494 0.058231845 0.029615775 0.034982815
000010 48 48 8b 3d 1a ee 9b 3d 36 99 a6 bc b3 a1 05 bd
       0.06800896 0.07613774 -0.020336729 -0.03262491
000020 e0 aa 02 bc f8 bf 99 bd 56 0a 2c 3d 9c b4 cc bc
       -0.00797531 -0.07507318 0.042002045 -0.024988465
000030 af ba 01 bd bc f0 5a 3d fc 44 4f 3d a4 da bd 3c
       -0.031672176 0.05345224 0.050602898 0.023175545
000040 8c b0 3e bd 50 96 83 bd 70 73 47 3c a0 60 5d 3c
       -0.046555087 -0.06425154 0.012173519 0.013511807
000050 68 ae 79 bc d8 05 7b bd bc 63 99 3c 12 7c 2f bd
       -0.015239336 -0.06128487 0.018724315 -0.042842932
000060 70 86 20 3d 8a cb a4 3d bc 31 f4 3c 97 58 99 bd
       0.03919071 0.080466345 0.029808871 -0.074876
000070 ac 50 72 3d e4 1d b1 bc f2 e9 01 3d 9c 27 f0 3c
       0.059158966 -0.021620698 0.03171725 0.029315762
000080 98 3e 64 3c 66 23 e3 bc 10 cf 28 bd a8 de 61 bc
       0.013930939 -0.02772684 -0.041213095 -0.013785996
000090 04 f7 ff 3c 84 0e 5b 3d 02 ed 7d bd d4 49 92 bc
       0.031245716 0.05348064 -0.061993606 -0.01785747
0000a0 75 15 63 bd 30 11 87 3c f8 41 b0 3c c0 d3 ae 3c
       -0.055440385 0.016487688 0.021515831 0.021341205
0000b0 e0 8e cb bc 42 47 1f 3d e0 b3 58 bc 99 7b 2d bd
       -0.024848402 0.038886316 -0.013226479 -0.0423542
0000c0 e0 dd 51 bd 70 4c 0b bd 57 3b 89 bd 54 60 f0 3c
       -0.051236987 -0.034008443 -0.06700771 0.029342808
0000d0 b9 74 49 bd 60 2a cf 3c c0 32 57 bc 4c 74 ed bc
       -0.04918358 0.02528876 -0.013134658 -0.028986119
0000e0 2c af 8d bd 2c 75 e3 3c 50 83 64 3d 8e c5 85 3d
       -0.06918177 0.027765833 0.05578929 0.06531821
0000f0 f8 16 46 bc a0 c0 79 3c c4 c0 6b bd 88 81 7f 3d
       -0.012090437 0.015243679 -0.057556883 0.06237939
000100 b0 fc 7f 3d f4 07 64 3d 3c cd f7 3c e4 a4 93 3d
       0.06249684 0.055671647 0.03024923 0.07209185
000110 d0 5c 96 3b 58 f0 1b 3d 8e e5 6d bd c4 0e be 3c
       0.004588701 0.038071007 -0.05808025 0.0232004
000120 c8 e1 5d 3c d2 b1 4a bd 80 06 55 bc 28 15 d3 bc
       0.0135426 -0.04948599 -0.013002038 -0.025766924
000130 40 78 4d 3d f0 0c 92 3b 7e af 10 3d 56 d9 17 3d
       0.050163507 0.0044571087 0.035323612 0.037072502
000140 40 95 7f bc 25 0a a4 bd 70 38 51 3d 2c 92 7a 3d
       -0.015599549 -0.080097474 0.051079214 0.061174557
000150 48 0b 39 3d b0 03 bb 3b 59 8d 8f bd 00 14 e2 3a
       0.045176774 0.0057072267 -0.07009382 0.0017248392
000160 7e 6e 06 3d a9 03 27 bd f0 c9 d4 3c 66 0f 3d bd
       0.032820217 -0.040774975 0.025975198 -0.046157263
000170 0c 7a d4 3c e7 c9 18 bd 88 55 76 bd a0 a9 53 3c
       0.025937103 -0.037301924 -0.060140163 0.01291886
000180 14 03 99 3d c0 fe ac bb ac e7 98 3d 20 2a c4 3b
       0.0747129 -0.005279392 0.07466063 0.005986467
000190 1c 53 c3 bc ca a6 11 bd bc c9 3a 3d aa 6f 90 3d
       -0.02384334 -0.035559453 0.045602545 0.07052548
0001a0 ec ef fd 3c c4 7c ea 3c 2c 8c 6c 3d b8 73 60 3d
       0.030998193 0.028623946 0.057750866 0.054797858
0001b0 1a e9 90 3d 00 8d 98 ba 37 b8 a1 bd e4 c8 50 3d
       0.070757106 -0.0011638701 -0.07896464 0.050972834
0001c0 58 dd 0e bd 30 9c 08 3c 80 12 79 3c 58 6a 85 3c
       -0.03487906 0.008338019 0.015202165 0.01628606
0001d0 51 0e 46 bd 1c cb f7 bc 58 64 27 bc d2 53 c3 bc
       -0.048353497 -0.030248217 -0.010216795 -0.02384368
0001e0 74 9b 7a 3d d3 f5 9c bd bc 1f 48 bd 83 0f 35 bd
       0.061183408 -0.07664075 -0.04885839 -0.044204246
0001f0 f8 d6 59 3d f4 e8 98 3d d4 34 f6 3c ae 9a 19 bd
       0.053183526 0.07466307 0.030054487 -0.03750103
000200 8c 3f 8e 3c af 02 73 bd cc 95 93 bd c8 0a de bc
       0.017364286 -0.05932873 -0.07206306 -0.02710475
000210 46 e6 9e bd 68 f8 8b bc 59 7b 0b bd 3e d7 0f bd
       -0.07758765 -0.017086223 -0.03405318 -0.03511738
000220 02 93 91 bd 94 10 95 3c f6 0b a1 bd 36 4f 09 3d
       -0.07108118 0.018196382 -0.078636095 0.033522807
000230 9c 55 1e 3d fd 49 20 bd 6e 9d 96 bd 24 7e fc bc
       0.038655862 -0.03913306 -0.07354246 -0.030821867
000240 10 f4 d0 3b de a7 2f 3d a2 a4 87 3d 36 1d 20 3d
       0.006376751 0.0428847 0.06623198 0.039090358
000250 74 62 95 bc 7c f3 54 3d d0 04 a6 bc 3e 83 50 bd
       -0.018235423 0.051990017 -0.020265967 -0.050906412
000260 5d 29 8b bd a0 5a 8c 3c 4e df d0 bc ca 28 ce bc
       -0.06794999 0.017133057 -0.025497105 -0.025165934
000270 e0 1a 6d 3d 9e e1 23 bd 20 d8 4b bc a8 cf 70 bc
       0.057886958 -0.040010087 -0.012441665 -0.014697947
000280 90 81 8b bd c0 8a 3c 3c 76 1a 0b 3d 69 fe 05 bd
       -0.068118215 0.01150769 0.033960782 -0.032713328
000290 3c 6e 64 3d 80 95 90 ba 8c 0f 87 bd d8 c8 a8 3c
       0.05576919 -0.0011030883 -0.06594762 0.020603582
0002a0 cc ae 45 bd 06 78 0e 3d 40 58 b1 3a 8c c1 94 bc
       -0.048262402 0.034782432 0.0013530329 -0.018158697
0002b0 4c 76 2c bd 14 3f 5e 3d aa 85 9f bd 14 ac 17 3d
       -0.042105004 0.054259375 -0.07789166 0.03702934
0002c0 4c ce e5 3c ae a6 1c bd a0 cc f2 3c 70 25 8e bd
       0.028052472 -0.038244896 0.029638588 -0.069407344
0002d0 a2 4e f5 bc 00 10 5e 3a 60 e0 44 3b 98 a8 42 bd
       -0.029944722 0.0008471012 0.0030040964 -0.047524065
0002e0 7a 89 46 bd 10 b4 60 3d 3c ac 83 3d f0 86 da 3c
       -0.04847095 0.05485922 0.064293355 0.026675671
0002f0 78 4e 51 bc d4 8d 69 3d 12 af 91 3d 84 57 b2 3c
       -0.012775056 0.057020023 0.0711347 0.021770246
000300 18 e4 fa bc 64 f1 86 bd 90 08 11 3d 4b 2f 5c bd
       -0.030626342 -0.0658901 0.035408556 -0.05375604
000310 f4 a9 cf bc f8 03 65 bc 6e eb 1d bd b0 d2 cf 3c
       -0.025349595 -0.013977997 -0.0385546 0.025369018
000320 5b 9a 86 bd 47 d0 a1 bd c0 10 0e 3c a9 4d 29 bd
       -0.0657241 -0.07901054 0.008670986 -0.041333828
000330 68 6e 82 bd 8e 1b 96 bd f8 08 ac bc 7a d0 96 3d
       -0.063687146 -0.073294744 -0.02100037 0.073639825
000340 0c 06 1c 3d 85 50 1c bd 96 aa 97 bd 14 56 52 3d
       0.038091704 -0.038162727 -0.074055836 0.05135162
000350 60 aa 52 bc 90 7b 69 bd 18 47 3e 3c af 81 33 bd
       -0.012858003 -0.057002604 0.01161363 -0.043824848
000360 fc dd 8b 3d 74 25 c3 3c 1f bf 1b bd 6d 21 9f bd
       0.068294495 0.02382157 -0.038024064 -0.07770047
000370 00 6a 9a 39 38 db 3d 3c 5e ef 3b bd 60 84 4e bc
       0.00029452145 0.01158791 -0.045882575 -0.012604803
000380 1e 8e 30 3d 20 e7 90 3b a8 0d 04 bc 12 38 14 3d
       0.043104284 0.0044220835 -0.0080598965 0.036186285
000390 00 01 c9 3c 34 8e 79 3d b2 4e 90 3d 4e 2d f2 bc
       0.02453661 0.06092663 0.0704626 -0.029562619
0003a0 f8 28 27 3c 89 ef 2b bd 83 1d 02 bd b8 8f a5 3d
       0.010202639 -0.041976485 -0.031766426 0.08084053
0003b0 84 5e 8c 3d 45 55 2c bd 50 e3 12 3c 10 dd 46 3d
       0.06853965 -0.042073507 0.008965328 0.048550665
0003c0 a0 57 34 bc 42 81 f7 bc e0 51 23 3b 58 8d a3 bd
       -0.01100722 -0.030213002 0.0024920627 -0.079859436
0003d0 e8 0c 45 3d fd 50 43 bd 4c b4 75 bd d0 20 e8 3b
       0.04810801 -0.04768466 -0.059986398 0.0070839897
0003e0 10 37 3f bc 3b b7 39 bd 82 5a a5 3d 7c fe 39 3d
       -0.011670843 -0.045340758 0.080739036 0.04540871
0003f0 ec ab 79 3d bc d3 86 bd 2c 82 3b bd 70 c8 8d bd
       0.060954973 -0.06583354 -0.04577844 -0.06922996

bias f4 [16]
000000 1a 61 9a bd bc 01 53 3d ee c1 83 bd 08 bf 7b bc
       -0.07538052 0.051515326 -0.064334735 -0.01536537
000010 f8 fe 4c bc 58 29 67 3c b4 20 65 3d b2 7e 2c 3d
       -0.012511961 0.014108978 0.05593939 0.042113014
000020 08 7e ad 3c f8 f9 19 bc 14 cc 9d bd 8d 10 9b bd
       0.02117826 -0.009397976 -0.077049404 -0.07571516
000030 e4 05 12 bd a4 78 c4 bc a6 c1 49 bd a8 21 e6 3c
       -0.03565015 -0.023983307 -0.049256943 0.02809222

weight f4 [120, 400]
000000 60 5f f6 bc 29 09 4c 3d 23 f1 ad bc c0 2a 81 bb
       -0.030074775 0.049813423 -0.021233147 -0.003941864
000010 0b c8 0f 3d fd f4 13 3d 44 50 73 3c 68 f4 21 bd
       0.035102885 0.03612231 0.01485068 -0.039539725
000020 36 e5 fe 3c 68 8f 1c bc 6a 6b f9 3c 83 b1 3b bd
       0.031115156 -0.009555675 0.030446727 -0.045823585
000030 f8 46 2f bd e4 0b 7a 3c 00 8e b6 ba 33 46 22 bd
       -0.04279229 0.015261624 -0.0013927817 -0.03961773
000040 6b f2 3f 3d 2d eb 41 bd 02 13 e7 3c c9 00 0d 3d
       0.046862047 -0.04734342 0.028207306 0.034424577
000050 00 ea 2e 3b 00 fc d2 bc 00 27 eb ba 5b c2 41 3d
       0.0026689768 -0.025754929 -0.00179407 0.047304492
000060 54 7a 45 bc 7e 1a 1a bd 36 51 df 3c 00 de 1c 39
       -0.012053091 -0.03762292 0.027260404 0.00014960021
000070 f6 17 a9 3c a9 e4 23 3d ad 1b f3 bc 80 e4 63 3b
       0.020641308 0.04001299 -0.029676283 0.0034773648
000080 20 ac 0b 3c 2c 9a 1d bc 2a e7 f0 bc ec e3 4b bc
       0.0085249245 -0.009619277 -0.029407103 -0.0124444775
000090 b1 93 39 3d a1 f2 20 3d 2e 75 f7 3c e0 a7 1e 3b
       0.045306865 0.03929389 0.030207243 0.0024208948
0000a0 51 b7 39 3d fc 2d 63 3c bb 13 32 bd 55 a9 38 bd
       0.04534084 0.013865944 -0.043475848 -0.045083363
0000b0 50 e6 35 3b 30 62 6f bb e0 13 21 3b e8 19 c2 bb
       0.0027755685 -0.003652703 0.0024578497 -0.0059234984
0000c0 10 e0 aa 3b bd 02 08 3d 59 4b 26 3d ab 95 48 bd
       0.0052146986 0.033205736 0.0405992 -0.04897086
0000d0 13 80 e3 bc ac da 20 3c 39 dc 0d 3d 77 07 2d 3d
       -0.027771031 0.00981776 0.03463385 0.042243447
0000e0 a5 41 0f bd 50 a9 ae bc e5 c7 09 3d 40 d4 de bc
       -0.034974713 -0.021320969 0.0336379 -0.027200818
0000f0 7b a2 13 bd fc 4e 0c bd d3 b6 e4 bc 02 e7 92 3c
       -0.036043625 -0.034255013 -0.027919209 0.017932419
000100 ca 76 15 bd 78 2f 06 bc 6e fb d4 3c 0a 95 43 bd
       -0.03649024 -0.008190028 0.025998797 -0.047749557
000110 42 aa 3d bd 73 49 08 3d a5 f3 26 bd 80 fa 14 3a
       -0.04630495 0.03327317 -0.0407597 0.00056830794
000120 5d 5c e3 bc 87 62 a4 bc 74 74 55 bc 30 a7 d5 bb
       -0.027754003 -0.020066513 -0.013028253 -0.0065201744
000130 ed 04 2a 3d c0 86 be 3a 8f c5 02 3d 35 d3 38 bd
       0.041508604 0.0014536008 0.031926688 -0.045123298
000140 72 6f 97 3c 27 91 42 bd b0 84 13 bb 1f f8 3f 3d
       0.018485758 -0.04750171 -0.0022509508 0.046867486
000150 4e cf a1 3c 86 74 01 bd 80 68 27 3a 94 fe 58 3c
       0.01975217 -0.031605266 0.0006386116 0.01324429
000160 c8 83 34 bc c7 f6 ce bc a6 24 e5 3c 4a 09 8d bc
       -0.011017747 -0.025264157 0.027971577 -0.017216343
000170 55 10 2b bd 6b 63 0e bd d2 c6 80 3c 2b 6b 2f 3d
       -0.041763622 -0.03476278 0.015719805 0.042826813
000180 51 10 26 3d 7f cd 24 3d d0 66 24 3b 29 54 24 3d
       0.040542904 0.04023504 0.0025085695 0.040119324
000190 93 2c 27 bd b0 e0 8e 3b 02 ab 87 3c 9d 5c 16 3d
       -0.040813994 0.004360281 0.016561035 0.036709417
0001a0 f3 8e c9 bc 40 de d5 bc b0 59 10 bb f5 90 45 bd
       -0.024604296 -0.026106954 -0.0022026114 -0.048233945
0001b0 a0 24 27 3b bd 44 f0 bc f3 53 11 bd e7 a6 cb bc
       0.0025504008 -0.029329652 -0.03548045 -0.024859859
0001c0 c8 cf 7f bc f4 2e 09 bc e8 17 08 bd e2 b3 8f 3c
       -0.015613504 -0.008373011 -0.033225924 0.01754183
0001d0 0a a9 e3 bc 65 4b 00 3d a1 c4 3c 3d 87 6f 46 3d
       -0.027790565 0.0313219 0.046085957 0.048446205
0001e0 ac 17 00 3c de cf 86 3c 41 9d 25 3d bf 0d 0a 3d
       0.007818144 0.01645654 0.040433172 0.033704516
0001f0 00 6b 65 bc 68 d8 c0 3b 37 5a 9e bc 11 a3 04 3d
       -0.014002562 0.0058851726 -0.019330127 0.032382075
000200 6a 8b 36 bd 9a 83 ce bc 82 12 36 bd 36 cd 94 3c
       -0.04456655 -0.025209237 -0.044451244 0.018164258
000210 03 02 0d bd d3 19 9c bc 73 ec 11 bd 50 f7 71 3b
       -0.034425747 -0.019055283 -0.035625886 0.0036921091
000220 fa 3f a3 3c 46 8b e3 3c 30 41 36 bb 18 9a 48 3c
       0.019927967 0.027776372 -0.002780985 0.01224377
000230 54 6b 0f 3c a8 fb 1a bd 80 9d 4e ba 13 3e 0f 3d
       0.008753616 -0.037837654 -0.00078817457 0.034971308
000240 aa 24 e5 3c a8 31 2f bd 46 1a 06 bd fd 31 04 bd
       0.027971584 -0.042771965 -0.0327399 -0.032274235
000250 d9 99 2e 3d cd d2 29 bd 8f c0 02 3d 78 92 64 bc
       0.04262719 -0.0414608 0.03192192 -0.0139509365
000260 63 a0 13 3d 11 8a 38 3d a5 8e 1e bd 15 69 0e 3d
       0.03604163 0.045053545 -0.038710255 0.034768183
000270 94 88 1f 3c 40 1c 21 3c 03 57 cf bc 4c b3 10 bc
       0.009737153 0.0098333955 -0.025310045 -0.00883181
000280 b9 7e 12 3d 1b 81 38 bd 36 4b 83 bc d8 d1 24 bc
       0.035765383 -0.045045 -0.016027074 -0.010059796
000290 a2 f8 e2 3c 54 64 67 3c e4 05 76 3c 79 bf 3e 3d
       0.027706448 0.014123041 0.015016053 0.04656932
0002a0 74 64 08 3c 40 15 8b bb a3 6b 16 3d c0 82 02 3a
       0.008324731 -0.0042444766 0.036723744 0.000497859
0002b0 d2 2f 87 3c 80 70 41 ba 00 c5 fd bc e2 19 f5 3c
       0.016502295 -0.00073791295 -0.030977726 0.029919568
0002c0 80 66 f9 39 da 04 eb bc 74 b3 56 bc 9a 10 a7 3c
       0.0004756935 -0.028688837 -0.013104308 0.020393658
0002d0 96 f9 93 bc 5f 25 26 3d bf e0 2d bd 16 13 27 bd
       -0.018063348 0.040562984 -0.042450663 -0.040789686
0002e0 07 c2 42 3d 38 22 7a bc 3f d1 00 3d 90 aa 32 bd
       0.04754832 -0.015266947 0.031449553 -0.043619692
0002f0 05 e4 48 3d 71 29 3a 3d 21 fa 4a 3d 8d e4 bb bc
       0.04904558 0.045449678 0.049554948 -0.02293613
000300 37 97 11 3d 07 ac a7 bc 5e 9c a0 3c bb 7a 16 3d
       0.0355446 -0.020467771 0.019605812 0.03673814
000310 80 a0 52 3b f4 c7 10 bc e0 5d 89 bc 9d ea 3f 3d
       0.0032139122 -0.008836735 -0.016768396 0.046854604
000320 f8 08 0c bc 43 ee 41 bd aa 65 9b 3c 42 73 2e bd
       -0.00854706 -0.047346365 0.018969376 -0.042590387
000330 d0 e0 60 bb 66 5b 80 3c d0 2c b2 3b 37 78 d5 bc
       -0.0034313686 0.015668582 0.005437471 -0.0260583
000340 09 b5 2f 3d 68 07 cf 3b 89 34 2d 3d 39 8e 27 3d
       0.042897258 0.0063180216 0.04228643 0.04090712
000350 3c 36 50 3c c7 a0 aa bc 6d 84 19 3d b4 a2 53 3c
       0.012708243 -0.020828618 0.037479807 0.012917209
000360 ea 6d d6 3c e0 44 75 bb 37 09 3c bd 80 16 4a 3a
       0.026175458 -0.0037425086 -0.045907225 0.0007709041
000370 7b 53 40 bd cb 3e 33 3d 10 0f 23 bd 32 d8 85 3c
       -0.046954613 0.043761056 -0.039809287 0.016338442
000380 50 39 49 bd d2 65 f3 3c ec 5f 10 bc 4a b3 15 bd
       -0.049126923 0.029711638 -0.008811932 -0.036547936
000390 4e 1c a2 3c 5a 73 bc 3c 8a 0d a8 3c 17 41 ec bc
       0.019788887 0.023004223 0.020514268 -0.028839631
0003a0 3d ad 9a bc c0 37 f6 bb 9c 64 02 bd c2 c2 d5 3c
       -0.018881435 -0.00751397 -0.03183423 0.026093844
0003b0 51 1a 40 3d 8b 9f 32 bd 4a 07 02 bd 50 4d e0 bc
       0.046900097 -0.043609183 -0.031745233 -0.027380615
0003c0 f2 a8 c8 3c 43 56 d0 bc 80 e8 77 ba c6 b5 0f bd
       0.024494622 -0.025431758 -0.00094569474 -0.035085462
0003d0 33 7b 33 bd 54 cf 5f 3c 41 31 4b 3d 9a a7 e1 3c
       -0.043818664 0.013660271 0.04960752 0.027545739
0003e0 70 38 45 bd 94 b5 34 3c fe 4e c8 3c 15 44 27 3d
       -0.048149526 0.01102962 0.024451729 0.040836412
0003f0 82 6a ff 3c a7 8a dc bc fa 0a e8 3c 0c ad 1d bc
       0.031178717 -0.026921583 0.028325547 -0.009623777

bias f4 [120]
000000 00 ee b3 bc 44 6e 5e 3c e7 0e 2d 3d 28 8f 39 3c
       -0.021964073 0.013576094 0.04225054 0.011325635
000010 63 44 d4 bc d4 fc 8d bc 5a b6 c7 bc 09 ad 38 3d
       -0.025911516 -0.017332472 -0.024378944 0.045086894
000020 41 0d 2d 3d 68 0b da bb e2 2e e5 3c 00 63 8f ba
       0.042248968 -0.0066541918 0.027976457 -0.0010939538
000030 ae a3 a9 3c f8 47 37 bc 03 85 e7 bc 80 3f 67 ba
       0.020707931 -0.011186592 -0.028261667 -0.0008821413
000040 10 7c 85 bb b8 6e 3d bc 71 5f 03 3d 3a ab c1 bc
       -0.0040736273 -0.011562042 0.032073442 -0.023641217
000050 60 25 0a 3b 80 3d 67 ba a9 55 13 3d e2 14 3e bd
       0.0021079406 -0.0008821115 0.035970364 -0.046406634
000060 18 0f d9 bb 1a 12 b4 3c b7 b7 d3 bc c6 18 e4 3c
       -0.006624114 0.021981288 -0.025844438 0.027843844
000070 f8 1d 1b 3c 4d 1d 06 3d a0 a9 4b 3c 3a e9 ce bc
       0.009467594 0.032742787 0.0124305785 -0.025257695
000080 bc 13 56 3c 30 ad a3 bb 80 d9 2d bd 75 1d 29 3d
       0.0130662285 -0.004995011 -0.042443752 0.041287858
000090 c0 b6 a5 bb 77 50 0e 3d 22 a2 d1 3c 8d 06 c9 bc
       -0.005057186 0.034744706 0.025590006 -0.024539256
0000a0 c8 be 58 bc e7 ba 14 3d d8 40 b5 bb 71 73 28 3d
       -0.01322908 0.036311056 -0.0055314116 0.04112572
0000b0 00 a2 09 3b b0 32 80 bc 74 07 44 3c be 29 df 3c
       0.00210011 -0.01564917 0.011964668 0.027241584
0000c0 16 2c 0b bd 54 55 2a 3c 43 83 11 3d d9 f3 35 3d
       -0.03397759 0.01039632 0.03552557 0.044422004
0000d0 c0 94 23 3a 00 81 b9 3b 06 f5 c1 3c 8d e1 13 bd
       0.0006240122 0.00566113 0.023676407 -0.036103774
0000e0 14 3b 3a 3c b1 e4 19 3d e3 6a a2 bc f8 be 24 3c
       0.011366624 0.037571613 -0.019826358 0.010055296
0000f0 c9 1c 48 3d d4 01 6f bc 14 1c 60 3c d3 8f 2e bd
       0.048855577 -0.014587838 0.013678569 -0.04261763
000100 c0 ee 35 3a c3 80 ca bc e2 23 fc 3c 87 be b9 bc
       0.00069401786 -0.024719601 0.030778829 -0.022673858
000110 3f ff 0d 3d 82 77 90 3c ea f0 a0 bc 57 e4 d7 bc
       0.03466725 0.01763511 -0.019646127 -0.026353998
000120 cb 78 15 3d 22 ee 92 3c 0f af 32 bd b0 df dd 3b
       0.03649215 0.017935816 -0.04362398 0.0067710504
000130 f0 6d 84 bc 21 04 2f 3d 4d 05 3f bd fa b5 96 3c
       -0.016165704 0.042728547 -0.046635915 0.01839732
000140 c8 ec 1e bc 30 76 0d 3b da a6 a5 bc b3 dc ff bc
       -0.009700008 0.0021585338 -0.020221163 -0.031233167
000150 92 f9 84 3c 2b 82 34 3d 62 33 0f bd 14 3d 77 bc
       0.016232286 0.04406945 -0.03496111 -0.015090246
000160 ff 2e 4b bd 8a 9b f1 bc 8a 05 9a bc 80 d5 1b ba
       -0.049605366 -0.029493112 -0.01880147 -0.0005944595
000170 1b d2 39 bd f1 5d 18 3d e2 4e f1 3c c8 26 55 bc
       -0.045366388 0.037198965 0.02945656 -0.013009734
000180 b0 25 1c bb ff 2f 38 bd 28 83 fc bb c6 ef 95 bc
       -0.0023826174 -0.044967648 -0.0077060647 -0.01830281
000190 e5 35 11 bd d8 97 58 bc c5 4d 22 bd 40 39 8c 3b
       -0.03545179 -0.013219796 -0.039624948 0.0042792857
0001a0 a0 c9 5e 3b 74 d8 7a 3c 20 76 1b bd 2c 23 3d 3c
       0.003399469 0.0153103955 -0.03795445 0.01154403
0001b0 7d d3 03 bd 94 b1 26 3c d2 4e 25 bd 54 0f 22 3c
       -0.032184113 0.010174174 -0.040358372 0.00989135
0001c0 a0 83 6a bc 17 aa 30 bd 54 97 07 bc 3e 96 ed 3c
       -0.014313608 -0.04313096 -0.0082758255 0.029002305
0001d0 57 ed 14 3d 5c 2d 08 bd 11 c6 03 3d 07 08 3d bd
       0.036359157 -0.033246383 0.032171313 -0.046150234

weight f4 [84, 120]
000000 e0 59 07 3b c0 c6 bc ba 2c 7c ce bc 18 b7 3e 3d
       0.0020652935 -0.0014402494 -0.025205694 0.04656133
000010 d8 2e a6 bc 00 b4 b3 3d b0 bb 92 3d 12 c3 6c bd
       -0.020286009 0.08774567 0.07164705 -0.05780322
000020 f8 c9 66 3c 00 96 e0 3b e0 38 70 3c 34 c2 c0 3c
       0.014086239 0.006853819 0.014661998 0.023530103
000030 10 d1 0d 3c b0 8f a7 3d 10 09 33 3d 9e 7a a5 bd
       0.008655801 0.08181703 0.043709815 -0.08080028
000040 aa 7c 53 bd 60 3a 76 bd cc 7e ed 3c 80 74 5a ba
       -0.05163256 -0.060114264 0.028991126 -0.00083334
000050 f0 54 17 3d cc 2b 1b 3d 60 d1 31 bb 70 73 95 3d
       0.036946237 0.037883565 -0.0027132854 0.072974086
000060 3c 32 34 3d 48 6e 0a 3c dc 1e 90 bd 50 c0 d3 3c
       0.04399322 0.008449145 -0.07037136 0.025848538
000070 09 8f 92 bd db 8f 14 bd 4c a3 76 3d de 05 a7 3d
       -0.07156188 -0.036270004 0.060214326 0.08155416
000080 8c 86 62 3d 50 21 96 bb b4 cb e0 3c 38 5e 55 3d
       0.055304095 -0.004581608 0.027440883 0.052091807
000090 38 b0 ae 3c ec 95 0c 3d 8c cd d3 3c 48 ae dd bc
       0.021324262 0.034322664 0.025854848 -0.027060643
0000a0 b8 c3 49 3d e0 4e 1f bc 14 79 f4 3c ac 5f b0 bc
       0.049258918 -0.009723395 0.02984289 -0.021529995
0000b0 4f 8e 9c bd 28 6c af 3d ab 66 9c bd ba e8 90 bd
       -0.07644331 0.08565551 -0.0763677 -0.07075639
0000c0 b8 a7 62 bc 34 a7 77 3d 40 a1 5f 3b f8 c9 56 3c
       -0.013833933 0.06046219 0.0034123212 0.013109677
0000d0 d8 ca 6e 3c 98 4a de 3c bd 54 57 bd 1e 03 83 3d
       0.014574729 0.027135178 -0.052571047 0.06397079
0000e0 34 a8 41 3d 3e 35 a0 bd 08 f6 7b 3d 88 dc c9 3c
       0.04727955 -0.07822655 0.06151393 0.02464129
0000f0 d8 00 f3 bc 56 f7 90 bd 5a ce 81 bd c4 80 55 bd
       -0.029663488 -0.070784256 -0.063381866 -0.052124754
000100 18 d9 c5 3c 83 30 ae bd 3c c4 94 bd 08 db 2f 3d
       0.02415137 -0.085053466 -0.07263991 0.042933494
000110 b0 20 a5 3d 54 0f 19 3d ac dc 88 bd b8 2b ab 3d
       0.08062875 0.037368134 -0.06682715 0.08357948
000120 7e da b3 3d 00 95 ad bb 40 46 86 3a f0 de 80 bd
       0.087819085 -0.005297303 0.0010244325 -0.06292522
000130 af f3 a2 bd 9c ab 0b 3d 70 7b 97 3d 64 27 7c 3d
       -0.07956635 0.034099206 0.07396591 0.061561003
000140 7c 99 d6 3c dc 21 ec bc 94 6c 64 3d 18 1d 98 bc
       0.026196234 -0.02882474 0.05576761 -0.01856856
000150 70 ec 74 bc 9a a8 32 bd 24 1a 82 3d 89 67 6a bd
       -0.014948949 -0.043617822 0.06352642 -0.057227645
000160 f0 cd 0b bc 20 ee 0f 3c 66 04 84 3d 74 4a b7 bd
       -0.008532986 0.008784801 0.064461514 -0.08949748
000170 b8 7b a5 bd 30 c5 7d bc 14 39 2d 3d 56 60 98 bd
       -0.08080238 -0.015488908 0.042290762 -0.074402496
000180 d0 ef 82 3d 00 eb 5c bd 0c d8 c9 3c 12 a5 82 3d
       0.06393397 -0.05393505 0.024639152 0.06379141
000190 68 7f 33 bc a0 55 67 3c 98 d5 a9 3d 38 46 87 bc
       -0.010955669 0.014119536 0.08292693 -0.016512975
0001a0 c5 73 75 bd 20 8f 80 bc dc 4b 8b 3d 08 21 75 bc
       -0.05992486 -0.015693247 0.068015784 -0.014961489
0001b0 d4 5e 2c 3d 3e fc 35 bd 64 99 b7 bc 1c 3a df 3c
       0.042082623 -0.04443001 -0.02241201 0.027249388
0001c0 41 da 64 bd 20 27 a7 bb 80 c0 6e 3a b4 93 39 3d
       -0.055872206 -0.0051010996 0.0009107664 0.045306876
0001d0 77 a7 87 bd 55 5f 01 bd b4 df 80 bc 00 14 74 3c
       -0.06623738 -0.031585056 -0.01573167 0.0148973465
0001e0 b2 19 7d bd 6d ea 1b bd 20 a3 69 bb f0 a2 60 3d
       -0.061792083 -0.038065363 -0.0035650209 0.05484289
0001f0 3f 27 27 bd 95 fc 3c bd ea 79 49 bd 2c af b9 3d
       -0.040808912 -0.04613932 -0.049188532 0.090666145
000200 a0 26 6d bb ec 33 14 3d f6 4b 76 bd 3e 5a ae bd
       -0.0036186352 0.03618233 -0.060131036 -0.08513306
000210 dc 08 be 3c f8 33 7a 3d ed 4c b0 bd 0c a0 69 3d
       0.023197584 0.061084718 -0.086084224 0.0570374
000220 b0 38 a1 3d 50 55 4b bc d0 be f7 3b 56 aa ff bc
       0.078721404 -0.012410477 0.0075605884 -0.031209152
000230 e0 53 25 bc e8 73 ad bd 2c 40 b3 bc 00 5d 98 bd
       -0.010090798 -0.08469373 -0.021881185 -0.07439613
000240 70 b1 43 3d 1c bc 97 3d 12 8f 97 3d 0b 32 b8 bd
       0.04777664 0.07408926 0.07400335 -0.0899392
000250 87 11 ab bd f0 87 ad bb a0 4d a6 3d c6 22 8c 3d
       -0.083529525 -0.005295746 0.081202745 0.0684257
000260 54 37 af bc c0 c2 92 3a 44 88 8f bd 34 28 94 3d
       -0.021388687 0.0011196956 -0.070084125 0.07234231
000270 5b 32 a4 bd a4 a4 c9 3c 40 1d 5a bb e0 fd 3e bb
       -0.08017417 0.02461464 -0.0033281595 -0.002914302
000280 7c 96 be 3c 73 17 34 bd 29 82 ba bd 60 f4 45 3d
       0.023265116 -0.043967675 -0.09106857 0.048328757
000290 d4 58 d4 3c 5b 3e 52 bd bc 10 cd bc 7a e2 8c 3d
       0.025921263 -0.051328998 -0.025032394 0.068791345
0002a0 83 ba 5b bd 70 3c 44 bc 28 ec 39 3d d4 00 8e bd
       -0.05364467 -0.0119773 0.04539123 -0.06933752
0002b0 9e d7 02 3d b4 8b a1 3d 00 04 f3 bb b0 da 3c 3c
       0.03194391 0.078879744 -0.0074162483 0.011526749
0002c0 c4 a9 08 3d a8 9d 07 bc 80 af 6f bb 70 65 cd bc
       0.033365026 -0.008277334 -0.0036573112 -0.025072783
0002d0 d2 a0 aa bd 08 23 86 3d 2d 2e b9 bd c4 65 17 3d
       -0.08331455 0.065496504 -0.090420105 0.036962286
0002e0 b3 fb 22 bd 12 60 b0 3d c4 94 8c bd 54 e1 d3 3c
       -0.03979082 0.08612074 -0.06864312 0.02586428
0002f0 b8 53 35 bc 16 3c f3 bc 38 c4 b9 bc e0 f5 38 3d
       -0.011067323 -0.029691737 -0.022676572 0.04515636
000300 a4 9b b1 3d b3 3d 1b bd d2 69 91 bd 5a f3 77 bd
       0.08672264 -0.037900638 -0.07100262 -0.060534813
000310 80 d7 9f bb 50 42 d8 3c d6 3b 17 bd 74 e7 3f 3d
       -0.0048779845 0.026398808 -0.0369223 0.04685159
000320 44 77 5b 3d 4c e6 c8 bc 98 8b 9b bc b7 56 55 bd
       0.053580537 -0.024523877 -0.018987462 -0.05208465
000330 9c 01 35 3d da 37 84 3d 1a 40 a9 bd 7c f2 d3 bc
       0.044190988 0.06455965 -0.082641795 -0.025872461
000340 78 69 47 bc e9 fd 0b bd b1 20 34 bd b8 da 33 3d
       -0.012171142 -0.034177694 -0.04397649 0.04390976
000350 da b5 a3 bd 88 de 43 bc d0 22 1e bc 38 6e 50 3d
       -0.0799367 -0.011954911 -0.009651855 0.050886363
000360 70 ec c5 bb 2f 9d ae bd cc 90 d5 bc 16 95 86 3d
       -0.0060401484 -0.08526074 -0.026070021 0.06571405
000370 b3 6f 1a bd c8 76 7d 3d 90 36 6b bc 48 51 2e 3c
       -0.03770418 0.061880857 -0.01435627 0.010639496
000380 e0 5f 4e 3d 64 a1 86 3d 60 f9 72 3b e0 7f 7e 3d
       0.050384402 0.065737516 0.0037074909 0.06213367
000390 74 8a 0f bd 16 98 86 3d 5d b2 65 bd 35 c6 a6 bd
       -0.03504415 0.06571977 -0.056078304 -0.08143274
0003a0 94 a3 1a 3d 7c 6a 99 bc 70 b2 ad bc 6c 4d 94 3d
       0.037753657 -0.018727534 -0.02120325 0.072413296
0003b0 54 ec b7 bc c8 79 aa 3d 40 84 89 ba 8c 98 d3 3c
       -0.022451557 0.08324009 -0.0010491684 0.025829576
0003c0 14 fd 9f 3c 04 b8 3e 3d 00 40 6f b8 04 0e 72 3d
       0.019529857 0.04656221 -5.7041645e-05 0.059095398
0003d0 00 76 ab 39 28 65 93 3d 34 77 44 3d 80 b3 61 3a
       0.00032703578 0.071970284 0.047965243 0.00086098164
0003e0 f3 61 8c bd 74 a9 d2 bc 0e dd 81 3d 28 b9 60 3c
       -0.0685462 -0.025715567 0.06340991 0.01371602
0003f0 a2 6f a4 3d fd 67 77 bd a4 3f 56 3d 5d ab 72 bd
       0.08029105 -0.060401905 0.052306786 -0.059245456

bias f4 [84]
000000 8a bf a0 3d 53 dc 70 bd 55 b4 99 bd ce 2a 86 3d
       0.07849033 -0.058803868 -0.07505099 0.06551133
000010 20 33 b1 3d 60 d0 36 3d ce ea 94 3d 20 bc 12 3c
       0.086523294 0.044632316 0.07271348 0.008955985
000020 00 62 60 bb c8 ca 66 bc 2c 6f 9a bd d0 2b b9 bd
       -0.00342381 -0.014086433 -0.075407356 -0.0904156
000030 57 72 ae bd 68 36 87 bc b8 89 29 3d 78 62 2c 3d
       -0.08517902 -0.016505435 0.041391104 0.042086095
000040 db f1 42 bd 44 60 93 3d 10 c6 a8 bd e0 98 98 3d
       -0.047593933 0.071960956 -0.082409024 0.074510336
000050 98 2a 4a 3d e4 a5 03 3d 3f 60 2f bd 54 c8 88 3d
       0.049357027 0.032140628 -0.042816397 0.066788346
000060 70 7b 75 bc 6c db b7 3d 04 31 a3 bc 08 18 4c 3c
       -0.014983043 0.08977398 -0.019920833 0.012456901
000070 b8 3b 91 bc 2c fe 61 3d 10 d2 b9 bb 8e 72 ab 3d
       -0.017728671 0.055174038 -0.0056707934 0.08371459
000080 7b db 85 bd 23 95 9a bd 72 52 b0 3d b5 69 05 bd
       -0.06536003 -0.07547977 0.08609475 -0.032571513
000090 a1 4d 94 bd ea 11 ab bd a4 c7 1f 3d 07 26 8f bd
       -0.07241369 -0.08353026 0.03900875 -0.06989675
0000a0 c9 b5 99 bd 04 1a d4 bc cc 2a 93 3d 03 2e a8 bd
       -0.07505376 -0.025891311 0.07185897 -0.08211901
0000b0 50 c5 73 3d 7c 13 e6 3c 3c e4 b9 bd ea 94 b7 3d
       0.059514344 0.028085463 -0.090767354 0.0896395
0000c0 a0 14 a8 bb fe 40 8f 3d 6b d7 ba bd 14 7e 80 bd
       -0.005129412 0.06994818 -0.09123119 -0.062740475
0000d0 40 5c 33 3d d0 fb 1b bc e0 3f b1 3d ae fa 71 bd
       0.04378915 -0.009520486 0.08654761 -0.059076957
0000e0 d8 ed 9a 3c e0 44 5f 3d 28 e3 63 bc 03 64 4b bd
       0.01891224 0.054509044 -0.013909139 -0.049655925
0000f0 b6 4b 99 bd 2f ab a7 bd 41 19 a4 bd a0 48 52 3c
       -0.07485144 -0.081869476 -0.08012629 0.012834698
000100 68 fb 7f 3d f2 3d 80 bd a1 81 54 bd d8 f3 3a bc
       0.06249562 -0.06261815 -0.051881436 -0.011410676
000110 ca c8 85 bd 54 4c 6d 3d bc 2a ae 3c ce b2 b4 bd
       -0.06532438 0.05793412 0.021260612 -0.08823167
000120 0e e7 87 3d c0 7f 92 bc 9f cd a5 bd 64 19 69 3d
       0.06635867 -0.017883182 -0.0809586 0.05690898
000130 88 6b c6 3c 72 90 9f 3d e0 47 8e 3d 40 f2 f0 3a
       0.024221197 0.07791223 0.06947303 0.0018382743
000140 20 87 67 3d 00 d5 15 bb 62 8d 49 bd 50 83 30 3d
       0.05652535 -0.0022862554 -0.0492071 0.04309398

weight f4 [10, 84]
000000 80 9e d6 3a 00 df aa 3b 20 2f e5 3b 6d c6 d5 3d
       0.0016374141 0.005214572 0.006994143 0.10438237
000010 b6 5b 17 3d d6 90 a9 bd 6d 3b a6 3d d0 0c 83 bb
       0.036952697 -0.082795784 0.08116803 -0.00399933
000020 40 95 3d bc e3 35 8b 3d cc ca b1 bd 61 22 9d 3d
       -0.0115712285 0.067973875 -0.086812586 0.07672573
000030 ce 06 4f 3d e3 01 b5 3d ee c6 40 3d b9 4a d0 bd
       0.0505436 0.088382505 0.047064714 -0.10170502
000040 2b 39 d4 3d e5 31 bd 3d cd 8d 85 bd 79 fa d0 3d
       0.103624664 0.09238032 -0.06521187 0.10204024
000050 a4 55 99 3c 50 86 1e 3c c3 6b 9c 3d 2a c1 82 bd
       0.018717594 0.009675577 0.076377414 -0.06384499
000060 a0 98 8f bc 7e 9e 33 3d 3e 6f a0 bd 6c 6a e4 3c
       -0.017528832 0.04385232 -0.07833718 0.027882777
000070 3b 64 9f 3d 93 af c6 3d 69 62 57 bd 2a 0d bc bd
       0.07782789 0.09701457 -0.052584086 -0.09182198
000080 b5 85 80 bd e0 2d 03 bc e2 db 47 3d d1 57 db 3d
       -0.062755026 -0.008006543 0.04879368 0.10710109
000090 8c cc 68 bd ff 74 b0 3d c2 c9 9e bd c0 95 95 3a
       -0.056835696 0.08616065 -0.07753326 0.0011412427
0000a0 3c f6 e1 3c 34 d2 ac 3c ee a5 14 bd 40 21 d2 3a
       0.027583234 0.021096326 -0.036291055 0.0016031638
0000b0 48 22 d5 bc 9a 2c 15 3d d7 47 9f 3d 24 62 e4 bc
       -0.026017323 0.03641949 0.07777374 -0.027878828
0000c0 6e 0a 8b bd cd ad 82 3d c6 8a 5a 3d d9 b8 a2 3d
       -0.06789099 0.06380806 0.053355 0.07945413
0000d0 12 86 38 3d e7 5d a7 3d 88 eb ee bc 7c 61 c6 bd
       0.045049734 0.08172207 -0.029165044 -0.096865624
0000e0 e4 da 91 bd 66 bf 4c 3d 1c e0 5e bd 5d d6 9d bd
       -0.07121828 0.04998722 -0.054412946 -0.07706902
0000f0 18 62 17 bc 44 d6 7c bd c0 91 cf 3a 56 d6 06 bd
       -0.009239696 -0.061727777 0.0015836284 -0.03291925
000100 db a6 96 bd 05 99 8b 3d bd 83 8a 3d 13 12 bd 3d
       -0.07356044 0.068162955 0.06763408 0.09231963
000110 22 dc b5 bd 20 81 e4 3b 2d 75 d1 3d 44 66 ab bd
       -0.088798776 0.0069734007 0.10227428 -0.08369115
000120 20 40 2f bb 77 d3 b2 3d 68 7a c6 bd 2e 66 12 3d
       -0.0026741102 0.0873174 -0.09691316 0.035741977
000130 3a ae 1b bd 14 dc 94 3c fa f6 d0 bd 14 b3 21 bd
       -0.038007952 0.018171348 -0.10203357 -0.039477423
000140 df 5e d5 bd 7b 0d 9c 3d 4e 6a 60 3d 39 9d 41 bd
       -0.10418486 0.07619759 0.05478888 -0.04726908
000150 f2 6f 7f 3d 10 a2 f7 bb 18 4c 5b bc 60 dc d4 bd
       0.06236262 -0.007557161 -0.013384841 -0.10393596
000160 2c d0 0e bd f8 fc 2b bd c9 63 b1 3d 5d 3c 9a 3d
       -0.034866497 -0.041989297 0.08661611 0.07531045
000170 78 7a 23 3c bc e3 b5 3c 20 94 34 bb 80 e5 c3 bc
       0.009977929 0.022203319 -0.002755411 -0.023913145
000180 80 49 ea 3a 88 fc 72 bc 08 bf ac bd 7d 24 d6 3d
       0.0017874688 -0.014830716 -0.08434874 0.10456178
000190 00 df 93 39 a5 cf c5 3d d1 df 93 3d f6 ab a8 bd
       0.00028204173 0.09658746 0.07220424 -0.08235924
0001a0 ec e9 e6 bc 44 a7 c1 bc b4 c7 4b bd 36 dd ac bd
       -0.028187715 -0.023639329 -0.049751 -0.0844063
0001b0 de af 65 3d 54 c9 95 bc 09 7e 89 bd d0 91 03 bd
       0.056075923 -0.018284477 -0.067134924 -0.03212148
0001c0 dc 91 bb bd 40 b4 34 bb 37 5f bc bd 1c 92 ab 3c
       -0.0915868 -0.0027573258 -0.09197848 0.020943694
0001d0 04 d6 07 bd a3 9f cd 3d f9 ca b8 3d 35 89 b2 3d
       -0.033163086 0.10040214 0.09023089 0.087175764
0001e0 6b 14 d4 3d 0c c3 c8 3c ba 27 45 3d bc 71 18 bd
       0.10355457 0.024507068 0.04813359 -0.03721784
0001f0 64 dd e9 bc aa 47 37 3d 3b f9 c4 bd 3c 31 a1 3c
       -0.02854795 0.04474608 -0.096178494 0.019676797
000200 40 77 f9 3a ec e5 9e bd c9 da ce 3d 16 5f 38 bd
       0.0019032732 -0.07758698 0.10100324 -0.045012556
000210 59 c2 de 3d 76 96 53 3d cf a2 8c bd 60 40 be 3b
       0.108769126 0.051657163 -0.06866991 0.005806014
000220 6a ea 82 bd d4 be a7 bc a6 18 0f bd 3e 5a a9 bd
       -0.06392367 -0.020476736 -0.034935616 -0.082691655
000230 ad e1 99 3d b4 5a 87 3c bc 7a a9 bc 32 92 5e 3d
       0.07513747 0.016522743 -0.020688407 0.05433864
000240 80 84 de bd 34 88 9c bc 6c 35 d8 bd 56 e5 15 3d
       -0.10865116 -0.019107915 -0.105570644 0.036595665
000250 00 8c 29 3b 48 85 92 bd 96 75 0f 3d 0a f0 a6 bd
       0.00258708 -0.07154328 0.035024248 -0.081512526
000260 24 a7 96 3c 5a 48 df bd a0 fd 42 bc d4 de 1d bd
       0.018390246 -0.10902472 -0.011901289 -0.038542584
000270 1a 8e 24 bd b2 22 37 bd c1 6b b8 3d d1 9d c4 3d
       -0.04017458 -0.044710822 0.090049274 0.096004136
000280 a8 8b 10 bd 6f ac c1 3d 6c 16 03 bd a9 66 d2 3d
       -0.035289437 0.09456717 -0.032003805 0.10273487
000290 51 37 40 bd 00 cd 9f bd 17 d7 be 3d 8a a0 71 3d
       -0.046927754 -0.078027725 0.09318369 0.058990993
0002a0 f8 1b 61 3c e6 76 11 3d 66 9a 1a bd 88 2b d9 bd
       0.013739578 0.03551378 -0.037744902 -0.10604006
0002b0 08 dd 1c bd db ef be 3d c7 a6 c7 bd 6a 73 9e bd
       -0.03829673 0.093230926 -0.09748607 -0.07736857
0002c0 50 b5 99 bd 29 4d 7b bd 94 7e 99 bd 0c ba c7 3c
       -0.07505286 -0.061352883 -0.07494846 0.024380706
0002d0 77 c6 a5 bd 06 2e 58 3d 89 a1 d3 3d bd 21 97 3d
       -0.08094495 0.052778266 0.10333545 0.07379482
0002e0 b2 e5 7a bd 81 4f b5 bd c2 3e 0f 3d 10 92 94 bd
       -0.06125421 -0.08853055 0.03497196 -0.07254422
0002f0 00 e7 1c bc 24 97 9d bc 7e 65 39 bd 3b 47 dd 3d
       -0.009576559 -0.019237109 -0.045262806 0.10804602
000300 0a 14 7b 3d 44 e5 ac bd 8e 15 74 3d d0 91 50 bc
       0.061298408 -0.084421664 0.05959087 -0.012730077
000310 0a 83 06 bd 29 3d d5 3d bf 7a 5e bd bd 55 a4 3d
       -0.032839812 0.10412056 -0.05431628 0.08024166
000320 e0 df 3f bc e2 96 ba bd de 79 32 3d a3 4b d8 3d
       -0.011711091 -0.0911081 0.043573253 0.105613016
000330 aa eb 04 3d 10 e5 59 bc 40 26 9b 3b 04 11 82 3c
       0.03245131 -0.013299242 0.0047347844 0.015877254
000340 67 36 c0 3d 2e 26 35 bd 65 7a a7 bd fc 06 9d bd
       0.093853764 -0.044225864 -0.08177642 -0.07667348
000350 51 57 81 3d 62 0b 53 bd 36 57 7c 3d c0 3b 11 bc
       0.063154824 -0.051524527 0.06160661 -0.008864343
000360 f0 e6 ea bc b5 38 a5 3d 62 be 6b bd 1c 82 e4 3c
       -0.028674573 0.08067457 -0.05755461 0.027894072
000370 7a cb 0f bd 93 76 d2 3d 20 02 d4 bd 6a 61 62 3d
       -0.03510616 0.102765225 -0.10351968 0.055268683
000380 3a e0 54 3d 32 45 4d 3d 34 32 d5 bd d4 2f 5a bd
       0.05197165 0.050114818 -0.10409966 -0.05326827
000390 ce 7a 57 3d f9 ba 9b 3d a1 ec 9c 3d aa 5e 5a bd
       0.05260735 0.076040216 0.07662321 -0.053312935
0003a0 4b d8 dd 3d e0 b9 13 bc 80 d5 9f ba 2f 29 c4 3d
       0.1083227 -0.009016484 -0.0012194365 0.09578168
0003b0 9c 04 19 bd 56 73 d7 bd a0 2f d5 bb e5 84 98 3d
       -0.03735791 -0.105200455 -0.0065059215 0.074472226
0003c0 f2 3b 81 bd 4f d5 b1 3d 19 c9 52 bd 77 30 d1 bd
       -0.06310262 0.086832635 -0.051461313 -0.10214322
0003d0 14 be 90 3c 8c 2d de bc 80 53 70 bb 40 25 d2 3b
       0.017668761 -0.027121328 -0.0036670864 0.006413132
0003e0 86 63 1c 3d a0 95 52 bd 70 28 cb bd d6 f1 16 3d
       0.03818085 -0.051412225 -0.09919822 0.036851726
0003f0 00 be 6d ba ab a2 c8 bd ca 9f 64 3d 2c f7 a2 bd
       -0.0009069145 -0.097966515 0.05581645 -0.079573005

bias f4 [10]
000000 b0 60 c5 3b a0 f8 07 3b f8 27 81 bc a2 7b 3c bd
       0.006023489 0.0020747557 -0.015766129 -0.046016343
000010 a0 6a a6 bc 4c 75 d1 3c 00 a2 fc 3a 12 76 32 bd
       -0.020314515 0.025568627 0.0019274354 -0.043569632
000020 a5 28 89 3d 1a c6 24 bd
       0.066972055 -0.040227987
