sd_net.pth (torch_old, 249932 bytes, 12 tensors)

conv1.weight f4 [6, 3, 5, 5]
-0.023798652 0.03548622 0.08749387 0.019142821 -0.06799237 0.11288507 -0.099595614 -0.03445833
-0.10841702 -0.09688781 0.017150179 -0.031520873 0.01145874 -0.10621496 0.114997536 -0.037623994
-0.00561437 0.0031248555 -0.08777462 -0.049880356 0.047919482 0.06830691 -0.07208291 0.07059382
-0.062837735 -0.03445208 -0.10004905 -0.0135884285 -0.05051271 -0.062156804 0.11354384 0.053672373
0.035652876 0.08510579 0.019580439 -0.016874254 0.017968431 -0.08480279 0.026384994 0.0019070208
0.06752391 0.032489955 0.114957094 -0.08044939 -0.03285043 0.05292417 -0.01884944 -0.061926734
0.10067277 -0.074355245 -0.056830987 0.04644063 0.09298189 0.0036550239 -0.039791785 -0.058068305
-0.05071526 -0.11040493 -0.04829379 0.037130654 -0.099754155 0.008472614 0.032711715 -0.07926276
-0.08028875 0.049781024 0.1035988 -0.06882429 -0.10936324 0.02280265 -0.084329575 -0.032423064
0.10337336 0.06908204 -0.006518647 0.10199325 0.0008181259 0.004794292 0.01673153 0.004286498
0.031304464 -0.0133138 -0.10409342 -0.0540964 -0.036486402 0.02743192 -0.047776073 0.050229028
-0.08330575 -0.031966463 -0.080545686 0.06734267 0.013899252 0.07861994 -0.032643378 -0.0299728
-0.017551087 -0.008182965 0.100324675 0.05358614 0.030219272 -0.020365141 -0.04865192 -0.057708733
-0.11373248 0.005404398 -0.049087957 -0.024878167 -0.07356952 -0.109634034 0.092227966 -0.031122841
0.03956954 0.037916824 -0.039314486 0.0843094 -0.0947754 -0.045568146 0.0036061257 0.002624467
0.010034725 -0.09013944 0.0891158 0.035390034 0.09755802 -0.03732851 0.060142517 0.007964887
0.062498912 0.061407328 0.08527222 -0.011421137 -0.006609753 -0.05451856 -0.043642245 0.025434375
-0.0685313 -0.06904084 -0.06284915 0.08827275 0.048568323 -0.09088956 0.023639217 -0.05856992
-0.025125884 -0.03448903 -0.054177064 -0.026098527 0.065782756 0.094392076 -0.047769383 0.02739653
-0.10396245 0.06177111 0.05684504 0.047155157 0.0032086745 -0.06624508 -0.045480646 -0.09622147
-0.05558113 -0.027450383 0.09878266 -0.020522237 0.09080428 0.038029075 0.11417706 -0.0491181
0.011231735 -0.11010262 -0.041323543 -0.06936957 0.033832416 0.08570559 -0.017336361 0.09300786
0.04077354 -0.04051426 -0.074256964 0.012878686 0.03586504 -0.08217329 0.10801977 -0.067055985
-0.049683362 -0.0038336888 0.04452087 -0.0669872 0.0417331 -0.07299277 0.10026549 0.07043965
0.04343459 -0.007650964 0.09159863 0.0150107 -0.061059393 -0.06732863 -0.09710011 -0.026506782
-0.058417898 0.10791494 -0.05719315 -0.007898457 -0.1108613 0.015192136 0.113373235 0.031267077
-0.07199168 0.09859115 0.06923403 -0.09948036 -0.10466044 0.044000745 -0.025136031 -0.051167406
0.03217584 -0.056403983 -0.009722605 -0.011443727 0.10346837 -0.101747096 0.06262231 -0.0020417646
0.11034152 0.07973474 0.06277096 -0.024440475 -0.07327084 -0.026932858 -0.101613276 -0.059946347
0.09102602 -0.0032268465 0.026049778 0.051029265 0.019723177 0.040947676 -0.082332686 -0.062711954
0.056534782 0.04878591 -0.0544405 -0.098733075 -0.09641463 -0.07371024 0.049523383 -0.109544426
-0.11373598 -0.11072507 -0.016756132 -0.114758976 0.06857769 0.078822136 0.095970154 -0.068897575
00000000: 64f5 c2bc 005a 113d fc2f b33d 68d1 9c3c
00000010: 953f 8bbd 4a30 e73d c9f8 cbbd 2e24 0dbd
00000020: be09 debd 1e6d c6bd 887e 8c3c 081c 01bd
00000030: 70bd 3b3c 3b87 d9bd d483 eb3d 9e1b 1abd
00000040: c0f8 b7bb 60ca 4c3b 2ec3 b3bd 584f 4cbd
00000050: 3847 443d 7ee4 8b3d 34a0 93bd 7e93 903d
00000060: 12b1 80bd a01d 0dbd 84e6 ccbd 00a2 5ebc
00000070: 6ae6 4ebd 2298 7ebd ac89 e83d 90d7 5b3d
00000080: c008 123d f24b ae3d 2867 a03c e03b 8abc
00000090: 8832 933c 16ad adbd 5825 d83c 00f5 f93a
000000a0: fa49 8a3d 3014 053d a06e eb3d a6c2 a4bd
000000b0: 2c8e 06bd 04c7 583d 246a 9abc e3a6 7dbd
000000c0: 862d ce3d 9047 98bd 9cc7 68bd 8838 3e3d
000000d0: 4a6d be3d 2089 6f3b b6fc 22bd 08d9 6dbd
000000e0: ceba 4fbd fb1b e2bd b6cf 45bd 5016 183d
000000f0: e84b ccbd b8d0 0a3c b8fc 053d 8454 a2bd
00000100: 6e6e a4bd 30e7 4b3d 9c2b d43d c0f3 8cbd
00000110: d6f9 dfbd a0cc ba3c fcb4 acbd 0cce 04bd
00000120: 6ab5 d33d e27a 8d3d 609a d5bb d6e1 d03d
00000130: 8077 563a 7019 9d3b 9010 893c c075 8c3b
00000140: 1c39 003d 2022 5abc ee2e d5bd 3094 5dbd
00000150: c472 15bd e8b8 e03c d8b0 43bd f4bc 4d3d
00000160: 349c aabd 44ef 02bd 23f5 a4bd f4ea 893d
00000170: b0b9 633c 7e03 a13d 10b5 05bd 8489 f5bc
00000180: 4cc7 8fbc d811 06bc 0677 cd3d 247d 5b3d
00000190: 688e f73c ccd4 a6bc 3c47 47bd fe5f 6cbd
000001a0: 93ec e8bd 6017 b13b 7410 49bd 4ccd cbbc
000001b0: 9eab 96bd cf87 e0bd 04e2 bc3d 54f5 febc
000001c0: ac13 223d ac4e 1b3d 3a08 21bd 68aa ac3d
000001d0: 9b19 c2bd aaa5 3abd c054 6c3b 40ff 2b3b
000001e0: b068 243c 079b b8bd 5882 b63d 24f5 103d
000001f0: 80cc c73d c8e5 18bd 0058 763d 287f 023c
00000200: dcfe 7f3d 4086 7b3d 34a3 ae3d b81f 3bbc
00000210: a096 d8bb db4e 5fbd 36c2 32bd c05b d03c
00000220: 235a 8cbd 4965 8dbd 0eb7 80bd 58c8 b43d
00000230: 94ef 463d 4e24 babd 08a7 c13c 03e7 6fbd
00000240: ccd4 cdbc 5e44 0dbd c5e8 5dbd 94cc d5bc
00000250: 1cb9 863d a250 c13d d4a9 43bd b06e e03c
00000260: 44ea d4bd b403 7d3d 58d6 683d c425 413d
00000270: a048 523b 80ab 87bd ea49 3abd c30f c5bd
00000280: 0aa9 63bd a0df e0bc 904e ca3d 401e a8bc
00000290: 98f7 b93d 60c4 1b3d aad5 e93d 1030 49bd
000002a0: 5005 383c 7c7d e1bd e042 29bd a211 8ebd
000002b0: dc93 0a3d 6a86 af3d fc04 8ebc e87a be3d
000002c0: 2802 273d 48f2 25bd 0914 98bd 2001 533c
000002d0: 38e7 123d 784a a8bd 7839 dd3d a654 89bd
000002e0: c880 4bbd a03e 7bbb 845b 363d 9630 89bd
000002f0: 54f0 2a3d 3c7d 95bd fe57 cd3d aa42 903d
00000300: 78e8 313d f0b4 fabb 1098 bb3d 70ef 753c
00000310: 6a19 7abd 98e3 89bd 6cdc c6bd c024 d9bc
00000320: 9b47 6fbd 8202 dd3d 5d43 6abd 8868 01bc
00000330: 400b e3bd 70e8 783c 3a30 e83d e811 003d
00000340: 6070 93bd 28ea c93d 92ca 8d3d 5cbc cbbd
00000350: 3658 d6bd 203a 343d 14ea cdbc ea94 51bd
00000360: d0ca 033d dd07 67bd 904b 1fbc 787e 3bbc
00000370: 3ae7 d33d c860 d0bd 2040 803d 20cf 05bb
00000380: bcfa e13d f84b a33d 108e 803d 6437 c8bc
00000390: 060f 96bd 4ca2 dcbc 9f1a d0bd 4d8a 75bd
000003a0: da6b ba3d 8079 53bb 5866 d53c 1004 513d
000003b0: 8092 a13c c0b8 273d 0a9e a8bd 206f 80bd
000003c0: 0491 673d bcd3 473d 00fd 5ebd 9134 cabd
000003d0: 0975 c5bd 65f5 96bd 08d9 4a3d d458 e0bd
000003e0: 69ee e8bd d3c3 e2bd 2844 89bc c106 ebbd
000003f0: 7672 8c3d 806d a13d 008c c43d 2c1a 8dbd

conv1.bias f4 [6]
-0.020896524 0.08493407 0.050226495 0.005847141 0.06704466 -0.101063564
00000000: 302f abbc eaf1 ad3d 4cba 4d3d 6099 bf3b
00000010: b64e 893d 6afa cebd

conv2.weight f4 [16, 6, 5, 5]
0.06160088 0.041755214 -0.053287406 0.05446823 0.020365022 0.07423553 -0.008866198 -0.002188623
-0.056425277 0.0707477 -0.022223238 0.015329041 0.05644755 -0.06752563 0.04460664 -0.016954497
-0.048750572 0.030461162 -0.03299736 0.011246078 0.08078341 0.008571871 -0.00088100135 0.0076399
-0.018666 -0.049782194 0.0023446009 -0.020256262 -0.020674787 0.061570793 0.073818415 -0.04063908
-0.072094485 0.037568256 0.06075166 0.004378706 0.06490232 -0.05222039 0.022337966 0.0028264448
0.026829936 -0.06004654 -0.04011773 0.0016243905 -0.009743325 -0.07897674 0.034454957 -0.01692558
-0.058954667 0.026730478 -0.06260347 0.04767701 -0.0042462796 0.07823448 -0.05982124 -0.06069675
0.062318236 0.04850641 -0.018061988 0.040233105 0.0052012354 -0.06918671 -0.029019427 0.032281995
0.024590828 -0.040312037 -0.05891005 -0.07650713 -0.06692412 0.03420198 0.03470908 -0.049602516
0.029033177 -0.047568236 0.04112885 0.056459144 -0.07141578 0.07704815 0.07182819 -0.0031913295
-0.048838183 0.038261406 -0.001537174 0.027705513 -0.045948714 -0.037905883 -0.05164142 0.078084216
0.030942775 -0.036887914 -0.0129150525 0.008089706 0.06454897 0.047586665 -0.05823446 -0.02698759
-0.06582336 0.04878065 -0.06745888 -0.013547108 0.0010914728 -0.015415192 0.012152329 -0.00022930652
0.03930419 0.061270908 -0.034534078 0.019375958 0.05593212 -0.0037589893 0.03320889 0.038235024
0.06761612 0.049078673 -0.07745775 0.044414446 0.059547305 -0.05225582 -0.06279887 -0.06513311
-0.03973188 -0.03710414 -0.04915227 -0.022764638 -0.028023086 -0.0047422573 -0.05210182 0.06872995
-0.07132324 -0.0679636 0.032961614 -0.0326655 -0.0711599 -0.05945608 -0.04377668 0.03209193
-0.0045380145 -0.030057803 0.07639718 0.061982557 0.074770674 0.006739892 -0.020925298 -0.0047307163
-0.046249498 0.047117382 0.05736339 0.03248655 0.006552756 0.036556184 -0.02731108 -0.07523359
0.078640565 -0.028114036 0.049440876 0.05194719 -0.06350924 0.031235538 0.07233353 0.0077826977
0.025690272 -0.058576446 0.068368 0.056126133 0.008040011 -0.03228178 -0.04358926 -0.012926169
0.037892573 -0.03709265 0.06430021 -0.03491982 0.063907936 0.019137606 -0.0002783835 0.015878767
-0.044175785 0.03925582 0.07809064 -0.0050752982 -0.014053486 -0.005010098 0.024821676 -0.018828034
0.058708772 -0.028942842 -0.056081988 0.021391302 0.03594827 -0.018461153 -0.022165313 0.017756365
-0.0743795 2.2500753e-06 -0.0008373186 -0.011262789 0.03996695 0.0105966255 0.08011654 0.023371726
0.05870676 -0.07905143 -0.0033187866 -0.03673544 -0.04636217 0.061199397 0.05937928 -0.06927204
0.013820991 0.031007335 -0.045637187 0.022101909 0.041768298 -0.011375532 0.02225618 0.010000296
0.064262226 -0.06409347 -0.024961807 -0.019588202 -0.039101504 0.014146909 0.024509788 -0.07754746
-0.07056433 -0.0016648769 0.021235712 -0.03099218 -0.041920178 0.053378582 -0.080883935 0.0016271546
0.06091015 0.020123556 -0.029291708 -0.049900543 -0.07720171 0.0630189 0.016136892 -0.004413724
0.027313083 0.03198742 -0.07448375 0.007862307 0.05847554 0.025590196 -0.058787912 0.0672667
-0.005752489 -0.04752197 0.022653416 -0.057160906 0.014767781 0.07060929 0.035622545 0.07632786
00000000: 3451 7c3d 8407 2b3d e543 5abd 141a 5f3d
00000010: 8cd4 a63c cc08 983d 8843 11bc 006f 0fbb
00000020: 311e 67bd 2ce4 903d 820d b6bc a826 7b3c
00000030: 8c35 673d e14a 8abd 74b5 363d 28e4 8abc
00000040: aeae 47bd b089 f93c 3d28 07bd 7841 383c
00000050: c671 a53d 0871 0c3c 00f3 66ba 2058 fa3b
00000060: 70e9 98bc 6ae8 4bbd e0a7 193b 76f0 a5bc
00000070: 2c5e a9bc a831 7c3d 1c2e 973d 2a75 26bd
00000080: 46a6 93bd 2ce1 193d bcd6 783d 407b 8f3b
00000090: 82eb 843d 0ce5 55bd 1cfe b63c e03b 393b
000000a0: 74ca db3c 5cf3 75bd 7d52 24bd 80e9 d43a
000000b0: 78a2 1fbc 8fbe a1bd a420 0d3d 84a7 8abc
000000c0: 737a 71bd e0f9 da3c 4036 80bd f848 433d
000000d0: 6024 8bbb 6639 a03d 1e07 75bd 289d 78bd
000000e0: 6841 7f3d a8ae 463d bcf6 93bc 78cb 243d
000000f0: 206f aa3b c3b1 8dbd 26ba edbc 203a 043d
00000100: b472 c93c 3c1e 25bd aa4b 71bd c5af 9cbd
00000110: 830f 89bd 6017 0c3d 1c2b 0e3d 022c 4bbd
00000120: fcd6 ed3c e9d6 42bd ba76 283d b441 673d
00000130: 7042 92bd 6ccb 9d3d a81a 933d a025 51bb
00000140: 8c0a 48bd feb7 1c3d 007b c9ba acf6 e23c
00000150: b834 3cbd 3343 1bbd f485 53bd 9eea 9f3d
00000160: b47b fd3c c817 17bd a899 53bc b08a 043c
00000170: 4032 843d 3cea 423d 4287 6ebd 1415 ddbc
00000180: 66ce 86bd 38ce 473d e227 8abd b0f4 5dbc
00000190: c00f 8f3a 0090 7cbc 901a 473c 0072 70b9
000001a0: 6efd 203d 34f7 7a3d 9b73 0dbd 54ba 9e3c
000001b0: 1419 653d 6059 76bb 0c06 083d 549c 1c3d
000001c0: 527a 8a3d b806 493d 2ba2 9ebd eceb 353d
000001d0: e0e7 733d 330a 56bd b29c 80bd 8264 85bd
000001e0: e5bd 22bd 83fa 17bd e453 49bd e87c babc
000001f0: ac90 e5bc f064 9bbb b868 55bd 4ac2 8c3d
00000200: eb11 92bd 8030 8bbd c202 073d 42cc 05bd
00000210: 48bc 91bd 3888 73bd 2d4f 33bd d472 033d
00000220: a0b3 94bb c83b f6bc 2076 9c3d 6ce1 7d3d
00000230: 5e21 993d 50da dc3b 886b abbc 2004 9bbb
00000240: 1d70 3dbd 28fe 403d e0f5 6a3d 9e10 053d
00000250: 80b8 d63b f0bb 153d 7cbb dfbc 1214 9abd
00000260: 4e0e a13d 684f e6bc 8482 4a3d 94c6 543d
00000270: 2211 82bd ace1 ff3c 9a23 943d 0006 ff3b
00000280: 6874 d23c dbed 6fbd 8604 8c3d 84e4 653d
00000290: 40ba 033c e639 04bd a78a 32bd 48c8 53bc
000002a0: 3e35 1b3d 76ee 17bd d4af 833d 1608 0fbd
000002b0: 2ae2 823d 78c6 9c3c 00f4 91b9 3014 823c
000002c0: abf1 34bd b6ca 203d fced 9f3d b04e a6bb
000002d0: 9840 66bc c02b a4bb d456 cb3c 403d 9abc
000002e0: 9c78 703d 8a19 edbc 3ab6 65bd d03c af3c
000002f0: 7e3e 133d d83b 97bc 0894 b5bc cc75 913c
00000300: 4754 98bd 0000 1736 807f 5bba 9087 38bc
00000310: 62b4 233d 789d 2d3c 2414 a43d 1076 bf3c
00000320: 8076 703d b7e5 a1bd 0080 59bb e777 16bd
00000330: 42e6 3dbd 38ac 7a3d b037 733d 80de 8dbd
00000340: 7071 623c 1803 fe3c 0fee 3abd 100f b53c
00000350: 3c15 2b3d 7060 3abc 9852 b63c 48d8 233c
00000360: ea9b 833d 7043 83bd b47c ccbc 7077 a0bc
00000370: e628 20bd 70c8 673c c0c8 c83c 34d1 9ebd
00000380: 0884 90bd 0038 daba 84f6 ad3c 50e3 fdbc
00000390: 7eb4 2bbd 80a3 5a3d 7aa6 a5bd 4046 d53a
000003a0: ec7c 793d 28da a43c 2af5 efbc 8364 4cbd
000003b0: ee1b 9ebd 0e10 813d 8431 843c 00a1 90bb
000003c0: b0bf df3c 3e05 033d f08a 98bd e8d0 003c
000003d0: 0c84 6f3d 88a2 d13c 98cb 70bd 20c3 893d
000003e0: 607f bcbb 66a6 42bd a893 b93c 8e21 6abd
000003f0: 90f4 713c 9a9b 903d f2e8 113d c851 9c3d

conv2.bias f4 [16]
-0.06959734 0.004244022 0.019754037 -0.04561627 -0.027070448 0.017766498 0.031673208 -0.05547729
0.00680016 0.04685855 0.0046883896 -0.01419083 -0.01838556 0.065215915 -0.0025452748 -0.07804555
00000000: 0d89 8ebd 7011 8b3b 38d3 a13c 20d8 3abd
00000010: d8c2 ddbc 0c8b 913c c4bb 013d 283c 63bd
00000020: e0d3 de3b c0ee 3f3d 10a1 993b a880 68bc
00000030: 509d 96bc ec8f 853d a0ce 26bb 58d6 9fbd

fc1.weight f4 [120, 400]
-0.0086944215 0.030708436 -0.008619748 -0.031134838 -0.024946218 -0.0448294 -0.025901217 -0.021117901
-0.03852722 0.04302952 0.045086864 0.015320066 0.034389984 0.02973542 -0.016054034 0.049256165
0.04318672 -0.037231334 -0.049765535 0.006909352 0.046323214 0.020722192 0.041595135 0.0064444058
0.02803975 0.015377108 0.040670928 0.01750468 -0.048926797 -0.04006788 0.030502599 0.041320268
-0.00807162 -0.002662547 -0.027893543 0.017521802 0.006589014 -0.04721866 -0.04769956 0.043631654
0.0061966665 -0.0344912 0.011246216 -0.04065291 -0.0025504231 0.021102946 0.049531523 0.005377304
-0.021440644 0.022413168 0.026518796 -0.012970366 0.015049886 -0.022087425 -0.009421986 -0.014586836
-0.047796674 -0.003171824 0.01602837 0.031687964 0.038836922 -0.02963577 -0.023077577 0.00022060797
-0.018823916 0.0028505325 -0.021598507 -0.029971434 -0.026600743 -0.03639701 -0.032955147 0.029627029
0.024351116 -0.040596344 -0.008856915 -0.020316834 -0.03620369 -0.030542536 -0.034841616 -0.014897954
0.020826202 0.03416415 0.0015476272 0.0036539063 0.021239799 -0.022151012 0.006420832 -0.047662716
0.026116941 0.04543366 0.026070748 -0.048563372 0.03397693 -0.020821853 0.017620895 -0.046460222
-0.019802064 -0.01686902 -0.040252764 0.02325296 0.04107896 0.028339554 -0.04075911 0.016863417
0.04667743 -0.01027181 0.04556792 -0.045400333 0.03448015 -0.048430037 -0.007317722 0.022801798
-0.015921593 0.008622952 -0.034036413 -0.03691425 0.025468875 -0.031163359 -0.03518151 0.009970188
-0.005157076 -0.0024150386 0.03157438 -0.029216612 -0.010132261 0.028718527 -0.011263102 -0.029655678
-0.03578072 0.013684925 -0.026286662 0.008261211 0.048888925 -0.039016612 0.01908141 0.0020338073
0.010016568 -0.021376282 -0.046312213 0.0005015917 -0.014732242 -0.025648272 -0.010568716 0.010996111
0.021278586 0.0014282577 -0.02974276 -0.0144755915 0.04606278 0.021454696 0.0018253997 -0.003106404
-0.018092088 -0.03709622 -0.0044464357 0.006276291 0.013833325 -0.026345963 0.006103657 0.045069624
0.015183698 -0.019906074 -0.010807484 0.026697066 -0.049893785 -0.038057573 0.012423217 0.014894072
-0.025495453 -0.033449076 -0.0018501505 0.005217809 -0.044758704 -0.04724737 0.0027086139 -0.012331169
-0.017790101 0.047921304 -0.03147687 0.048212472 -0.0248842 -0.02485711 0.012010068 0.032597665
0.0015748665 0.037523057 0.042845365 0.016750421 0.013852317 -0.0307365 0.023522403 -0.03051737
0.03155044 0.025421958 0.022874657 0.010690443 -0.0035586543 -0.019899279 -0.049445547 -0.025684899
-0.046123546 -0.042959552 -0.04575352 0.03206927 0.02357832 -0.010896575 -0.02879321 -0.02493493
-0.032382563 0.04908395 -0.02743941 0.038477097 -0.006919466 0.019408647 0.0039952397 0.002954863
0.04588512 -0.018632494 8.186698e-05 0.036205355 0.028682683 0.018970732 -0.02514105 -0.016194068
0.044467065 -0.029914845 -0.02090075 -0.0139827505 0.04084379 -0.022120059 -0.026720721 -0.010262571
-0.022871375 -0.016715627 0.044510122 -0.014958434 0.023733307 -0.045727063 0.04923102 -0.040319365
0.0074691363 -0.024792625 0.027248796 -0.0018585734 -0.029518891 -0.028451635 -0.03214223 -0.04316193
-0.013398301 -0.033312693 0.03364742 0.047837283 0.005487837 0.010279834 0.034418885 0.009232253
00000000: 0c73 0ebc 4290 fb3c d839 0dbc 7d0e ffbc
00000010: 035c ccbc 089f 37bd ca2e d4bc 73ff acbc
00000020: b8ce 1dbd b93f 303d 01ad 383d 0401 7b3c
00000030: 83dc 0c3d b297 f33c c083 83bc d5c0 493d
00000040: 8fe4 303d e27f 18bd f2d6 4bbd d867 e23b
00000050: 69bd 3d3d 96c1 a93c a95f 2a3d 982b d33b
00000060: 9eb3 e53c 44f0 7b3c 8f96 263d fa65 8f3c
00000070: 7767 48bd 381e 24bd 96e0 f93c 713f 293d
00000080: d43e 04bc 207e 2ebb 0081 e4bc e289 8f3c
00000090: a8e8 d73b 5b68 41bd 9d60 43bd 1bb7 323d
000000a0: 680d cb3b a546 0dbd 0c42 383c aa83 26bd
000000b0: 0025 27bb 16e0 ac3c 91e1 4a3d 1834 b03b
000000c0: 4aa4 afbc d29b b73c f23d d93c a881 54bc
000000d0: cc93 763c b0f0 b4bc ac5e 1abc a0fd 6ebc
000000e0: 72c6 43bd 60de 4fbb ee4d 833c 3dcb 013d
000000f0: 7713 1f3d b7c6 f2bc 300d bdbc 0053 6739
00000100: 9d34 9abc 00d0 3a3b 5aef b0bc a786 f5bc
00000110: cde9 d9bc 0815 15bd fafb 06bd 62b4 f23c
00000120: fe7b c73c 5a48 26bd 981c 11bc 7d6f a6bc
00000130: 524a 14bd 5734 fabc 15b6 0ebd 8c16 74bc
00000140: b69b aa3c b5ef 0b3d c0d9 ca3a 6076 6f3b
00000150: 16ff ad3c 0a76 b5bc d865 d23b fb39 43bd
00000160: 32f3 d53c a518 3a3d 5292 d53c 63ea 46bd
00000170: 652b 0b3d 9792 aabc b259 903c 134d 3ebd
00000180: f037 a2bc e630 8abc 15e0 24bd fe7c be3c
00000190: 6942 283d 5a28 e83c 06f3 26bd 2625 8a3c
000001a0: d530 3f3d 184b 28bc 6da5 3a3d b3f5 39bd
000001b0: 0f3b 0d3d 935e 46bd 80c9 efbb d6ca ba3c
000001c0: 006e 82bc 4847 0d3c c469 0bbd 6633 17bd
000001d0: 1aa4 d03c 4d4a ffbc 7d1a 10bd 005a 233c
000001e0: b0fc a8bb a045 1ebb 2354 013d ad57 efbc
000001f0: c801 26bc 1e43 eb3c e088 38bc 77f0 f2bc
00000200: ce8e 12bd bc36 603c 2057 d7bc 085a 073c
00000210: c13f 483d e2cf 1fbd 9e50 9c3c a049 053b
00000220: 881c 243c 501d afbc e0b1 3dbd 407d 033a
00000230: 805f 71bc 531c d2bc 6828 2dbc 0829 343c
00000240: 6e50 ae3c 6034 bb3a 17a7 f3bc 082b 6dbc
00000250: 53ac 3c3d c2c1 af3c 4042 ef3a d094 4bbb
00000260: dc35 94bc 35f2 17bd 68b3 91bb 58a9 cd3b
00000270: 2ca5 623c 7dd3 d7bc 3001 c83b ed9a 383d
00000280: 0cc5 783c 1012 a3bc e011 31bc ceb3 da3c
00000290: 6d5d 4cbd 42e2 1bbd c08a 4b3c 4406 743c
000002a0: d7db d0bc e601 09bd c080 f2ba 28fa aa3b
000002b0: e754 37bd 7586 41bd 0083 313b ac08 4abc
000002c0: 8cbc 91bc 2149 443d e4ed 00bd 717a 453d
000002d0: f3d9 cbbc 23a1 cbbc e0c5 443c 2185 053d
000002e0: c06b ce3a c7b1 193d 9f7e 2f3d 2e38 893c
000002f0: d4f4 623c 1dcb fbbc 0eb2 c03c 90ff f9bc
00000300: 093b 013d b641 d03c a263 bb3c f826 2f3c
00000310: 5038 69bb d003 a3bc 6a87 4abd 2369 d2bc
00000320: 0bec 3cbd 5bf6 2fbd 0b68 3bbd 115b 033d
00000330: 5227 c13c 8c87 32bc bddf ebbc 5744 ccbc
00000340: 94a3 04bd 410c 493d 9dc8 e0bc 299a 1d3d
00000350: b0bc e2bb e2fe 9e3c 80ea 823b 60a6 413b
00000360: 09f2 3b3d 2ca3 98bc 00b0 ab38 114c 143d
00000370: f2f7 ea3c 8268 9b3c 9af4 cdbc 6ca9 84bc
00000380: 1923 363d fa0f f5bc 0d38 abbc e817 65bc
00000390: d14b 273d 2035 b5bc 6ae5 dabc 5824 28bc
000003a0: c05c bbbc 36ef 88bc 3f50 363d 3814 75bc
000003b0: 5a6c c23c 4d4c 3bbd 77a6 493d eb25 25bd
000003c0: a8bf f43b e719 cbbc de38 df3c 609b f3ba
000003d0: 9ad1 f1bc 6713 e9bc 92a7 03bd 90ca 30bd
000003e0: 8c84 5bbc e472 08bd e1d1 093d 07f1 433d
000003f0: 50d3 b33b c06c 283c d1fa 0c3d e042 173c

fc1.bias f4 [120]
0.04897287 -0.041015506 0.01956052 -0.014494825 0.045713942 -0.016522348 0.041596618 0.027280923
0.006487895 -0.0274449 -0.041889183 0.03324349 0.0027834363 0.0021103434 -0.01882872 0.039849635
0.046757024 0.041243244 0.033997346 -0.034233026 -0.0315393 -0.03432723 -0.035541147 -0.012393516
-0.02914139 -0.044150174 -0.03011824 0.0013428219 -0.030632598 -0.023710085 0.008094955 -0.025992364
0.012644086 0.020981167 0.0035876632 -0.030565728 -0.04510623 -0.028527856 0.00016187504 -0.031949855
-0.026720077 -0.045988407 0.005046375 -0.023982882 -0.0024197027 0.0013926029 0.035712544 -0.027208561
0.031686645 0.048207607 0.048626084 0.030042987 0.03922506 0.010941327 -0.012876976 -0.042217672
0.023125026 0.03632232 0.017777476 -0.012367427 -0.04524811 0.008536063 -0.032396942 0.00915755
0.04593763 -0.03695507 -0.0055403933 -0.04618583 -0.036382817 -0.032776415 -0.042927958 -0.014557313
-0.00032552332 -0.020507216 0.037774604 -0.01729592 -0.0030523427 0.01403084 -0.04824817 0.0036545917
0.007312011 -0.006560903 0.044160787 0.04130325 0.01170557 0.040554192 -0.03255089 -0.00963328
0.02539197 0.022601824 -0.0017505512 -0.009862851 -0.022943938 0.009452015 0.03176794 0.045449283
-0.035451002 0.027524259 0.009440433 -0.00037991256 -0.020372475 -0.024621917 -0.0045121685 -0.03092726
0.009984665 -0.033725917 -1.4714897e-06 -0.034158666 -0.038729817 0.034563 0.0036872998 -0.036754213
0.04664557 -0.03098895 -0.028613526 -0.016048752 -0.013045263 0.020855922 -0.044261683 -0.019872827
00000000: c797 483d e0ff 27bd 623d a03c b47b 6dbc
00000010: 8b3e 3b3d e059 87bc 3761 2a3d 3e7c df3c
00000020: 6898 d43b 20d4 e0bc fe93 2bbd 532a 083d
00000030: 506a 363b b04d 0a3b b03e 9abc 5f39 233d
00000040: 4b84 3f3d adee 283d cd40 0b3d ee37 0cbd
00000050: 5a2f 01bd b69a 0cbd 9893 11bd 2c0e 4bbc
00000060: edb9 eebc d0d6 34bd 87ba f6bc a001 b03a
00000070: 37f1 fabc a73b c2bc b4a0 043c f0ed d4bc
00000080: 2429 4f3c b2e0 ab3c 001f 6b3b fa64 fabc
00000090: 4fc1 38bd 40b3 e9bc 00bd 2939 dadd 02bd
000000a0: 10e4 dabc 575e 3cbd 105c a53b c077 c4bc
000000b0: e093 1ebb 0088 b63a 5147 123d 7de4 debc
000000c0: dbc9 013d 5775 453d 252c 473d b61c f63c
000000d0: 75aa 203d 4043 333c f4f9 52bc 70ec 2cbd
000000e0: b270 bd3c b7c6 143d 12a2 913c c0a0 4abc
000000f0: 1556 39bd d8da 0b3c a8b2 04bd 8c09 163c
00000100: 1929 3c3d 335e 17bd 308c b5bb 5a2d 3dbd
00000110: 2606 15bd 9040 06bd 3ad5 2fbd cc81 6ebc
00000120: 00ab aab9 c0fe a7bc 8bb9 1a3d 2cb0 8dbc
00000130: d009 48bb 9ce1 653c e09f 45bd e081 6f3b
00000140: 9899 ef3b d8fc d6bb f1e1 343d 992d 293d
00000150: b8c8 3f3c 271c 263d 1554 05bd e8d4 1dbc
00000160: d202 d03c 7627 b93c c072 e5ba cc97 21bc
00000170: edf4 bbbc a0dc 1a3c 191f 023d 0729 3a3d
00000180: 1235 11bd 8e7a e13c 0cac 1a3c 002f c7b9
00000190: 2de4 a6bc e7b3 c9bc d0da 93bb 2a5b fdbc
000001a0: b896 233c 3024 0abd 0080 c5b5 f5e9 0bbd
000001b0: 28a3 1ebd ef91 0d3d a0a6 713b 968b 16bd
000001c0: 6d0f 3f3d 8adc fdbc ea66 eabc ac78 83bc
000001d0: ccbb 55bc 0ada aa3c bd4b 35bd 57cc a2bc

fc2.weight f4 [84, 120]
-0.079439946 0.057714567 0.037309214 0.075652465 0.025687225 -0.04660665 0.05777882 -0.057941314
-0.013583519 -0.073034815 0.04337585 -0.076386414 -0.06533719 -0.019389123 0.0035091862 0.024783246
-0.025042161 -0.08476314 0.07805841 0.04413767 -0.0882232 -0.07173988 -0.08566965 -0.05242591
-0.06290671 -0.09097904 0.030535027 -0.05771529 -0.06834582 -0.017706722 0.054976195 0.051127017
-0.010823987 0.05532469 0.0765212 0.064126804 0.009390764 0.07900454 0.04612781 -0.020039119
-0.046918448 0.0019812062 0.0029985681 -0.087279856 0.040759847 0.057288155 0.054588616 0.054177478
-0.050011363 0.03856644 0.05969301 0.025610723 0.014852151 -0.044519864 0.019841217 -0.006930381
0.08960931 -0.03907747 0.07717179 -0.010356598 0.052120805 0.055666357 0.05485478 0.06726387
-0.016388945 -0.08447483 0.0694325 -0.005017452 -0.04551101 0.049874544 0.018370926 0.042366743
0.06805579 0.08108148 0.088630915 0.040518343 0.017487481 -0.017931432 0.007973947 0.06620936
-0.07145455 -0.08216461 -0.013326131 0.039598495 -0.03838419 0.01591494 -0.07203482 0.02949787
-0.048037753 -0.017090864 0.07397756 0.0062510893 -0.08154737 -0.020271495 -0.013773866 0.048670888
0.013305835 0.08403489 -0.046898283 0.017095096 -0.07457297 0.023355082 -0.044954676 -0.03078483
-0.01887174 0.042198896 -0.045941263 -0.0391156 -0.0046046004 0.021362863 -0.034802772 -0.023866877
0.004696548 0.0076145083 0.055512607 0.05915515 -0.06523076 -0.046891622 -0.014897965 -0.027810358
-0.012738362 -0.045869723 -0.028775513 -0.06183414 0.06524043 0.03025791 -0.083579235 0.049897686
-0.041593384 0.013420165 -0.06825481 0.06532891 -0.05653117 0.0079129785 -0.07957087 -0.04767816
-0.08837132 0.05625534 -0.020541124 0.08400701 0.012874357 -0.09102252 -0.069112435 0.07305543
0.05765994 0.062346354 -0.08896542 -0.06647758 -0.058335133 -0.0688173 2.7105212e-05 0.02289676
0.07552451 0.059353292 -0.049664762 0.061749265 -0.054501604 -0.014399476 -0.07344991 0.040950865
-0.0002412498 -0.051026493 0.072346404 0.07479873 0.052825615 -0.011166729 -0.03768519 0.046760187
0.04468535 -0.089298554 0.05760458 0.021815673 0.000678882 0.089396775 0.034692496 0.061308533
-0.0110998675 -0.01405558 0.026519604 0.0591508 -0.0022177622 -0.08261948 0.011290833 -0.028072618
-0.08385981 -0.077633955 -0.017630659 -0.07628015 0.060085207 -0.011128135 -0.056204256 0.024921462
0.015640475 0.0707244 -0.07701123 -0.020587794 -0.05411807 0.06746392 -0.07906397 0.054248303
-0.047943264 -0.008344218 -0.07113007 -0.030009184 -0.07690735 0.07236497 -0.084126696 0.04684159
0.052480668 0.078194335 0.012496248 0.016138077 -0.064661585 0.059412196 0.0645061 -0.030807953
0.009110764 0.045198902 0.062201038 0.045873135 -0.085068986 -0.028722629 0.088127 -0.031972934
0.024207644 -0.05328885 0.07251081 -0.028026685 -0.024231516 -0.06079644 -0.066703886 0.05263619
0.037071586 -0.07899102 0.08834429 0.076619714 0.038707614 -0.062488854 0.014959484 -0.08929251
-0.07840807 -0.012769081 -0.079265036 0.010413267 0.051276162 -0.054459576 0.002422057 -0.06258171
0.0021465719 0.05864583 -0.022837974 -0.043134846 0.07514599 0.035460576 -0.05315725 -0.01605691
00000000: 69b1 a2bd 1c66 6c3d 8cd1 183d aeef 9a3d
00000010: 046e d23c 9de6 3ebd 7ca9 6c3d df53 6dbd
00000020: 688d 5ebc 4793 95bd e0aa 313d 7b70 9cbd
00000030: 81cf 85bd f0d5 9ebc 60fa 653b 3c06 cb3c
00000040: 3825 cdbc 4c98 adbd 16dd 9f3d b4c9 343d
00000050: 5dae b4bd 5cec 92bd 9273 afbd 8dbc 56bd
00000060: 3cd5 80bd 3853 babd 9824 fa3c de66 6cbd
00000070: e5f8 8bbd b00d 91bc b82e 613d 906a 513d
00000080: 1857 31bc 249c 623d 26b7 9c3d ea54 833d
00000090: b8db 193c 22cd a13d 84f0 3c3d 1429 a4bc
000000a0: 8f2d 40bd 20d7 013b a083 443b c8bf b2bd
000000b0: ccf3 263d fca6 6a3d 5098 5f3d 34e9 5d3d
000000c0: b7d8 4cbd d8f7 1d3d a880 743d 94cd d13c
000000d0: 7056 733c 765a 36bd 0c8a a23c 4018 e3bb
000000e0: 1685 b73d b20f 20bd 3e0c 9e3d b8ae 29bc
000000f0: a07c 553d 6802 643d 68af 603d a4c1 893d
00000100: 1c42 86bc 2401 adbd a032 8e3d 7069 a4bb
00000110: c169 3abd 4049 4c3d a07e 963c c088 2d3d
00000120: d660 8b3d 0c0e a63d 2084 b53d 90f6 253d
00000130: e841 8f3c f0e4 92bc 28a5 023c c698 873d
00000140: c356 92bd eb45 a8bd d855 5abc 0832 223d
00000150: be38 1dbd 0c60 823c fe86 93bd 84a5 f13c
00000160: 3cc3 44bd 2402 8cbc 8c81 973d f0d5 cc3b
00000170: 4f02 a7bd 6810 a6bc c8ab 61bc 205b 473d
00000180: b800 5a3c 7c1a ac3d 6a18 40bd 040b 8c3c
00000190: b7b9 98bd 2853 bf3c 6522 38bd 7830 fcbc
000001a0: e898 9abc c0d8 2c3d e82c 3cbd ae37 20bd
000001b0: 30e2 96bb 2c01 af3c 5a8d 0ebd 7884 c3bc
000001c0: 80e5 993b 2083 f93b 3061 633d ac4c 723d
000001d0: b497 85bd 6e11 40bd 9816 74bc 8cd2 e3bc
000001e0: 90b4 50bc e4e1 3bbd a0ba ebbc cc45 7dbd
000001f0: c69c 853d 70df f73c 972b abbd 8461 4c3d
00000200: d35d 2abd 40e0 5b3c 2ec9 8bbd 2acb 853d
00000210: 3a8d 67bd 70a5 013c 0df6 a2bd 2d4a 43bd
00000220: 06fc b4bd 006c 663d dc45 a8bc de0b ac3d
00000230: f8ee 523c 046a babd d28a 8dbd 169e 953d
00000240: d42c 6c3d e45e 7f3d 8133 b6bd 6625 88bd
00000250: d2f0 6ebd 16f0 8cbd 0060 e337 fc91 bb3c
00000260: 98ac 9a3d 701c 733d 476d 4bbd ccec 7c3d
00000270: 133d 5fbd c8eb 6bbc e86c 96bd 18bc 273d
00000280: 00f8 7cb9 2801 51bd 5a2a 943d 1430 993d
00000290: ac5f 583d a8f4 36bc c95b 1abd 9c87 3f3d
000002a0: fc07 373d 29e2 b6bd c8f2 6b3d c8b6 b23c
000002b0: 00f7 313a a815 b73d b819 0e3d a81e 7b3d
000002c0: 38dc 35bc 6049 66bc a43f d93c 1c48 723d
000002d0: e057 11bb 6734 a9bd 30fd 383c 8cf8 e5bc
000002e0: b1be abbd 8dfe 9ebd 2c6e 90bc c438 9cbd
000002f0: e81b 763d c852 36bc 6f36 66bd 1828 cc3c
00000300: 7420 803c f4d7 903d 10b8 9dbd bca7 a8bc
00000310: e9aa 5dbd 862a 8a3d 4aec a1bd 7833 5e3d
00000320: 2860 44bd 30b6 08bc a4ac 91bd d2d5 f5bc
00000330: 9a81 9dbd 1634 943d 9e4a acbd f8dc 3f3d
00000340: f8f5 563d 5a24 a03d 10bd 4c3c 0034 843c
00000350: 4b6d 84bd 345a 733d c61b 843d f660 fcbc
00000360: 5045 153c 7c22 393d 84c6 7e3d 78e5 3b3d
00000370: a638 aebd b84b ebbc ee7b b43d 0df6 02bd
00000380: 1c4f c63c 6945 5abd 8c80 943d 3898 e5bc
00000390: 2c81 c6bc b005 79bd 0c9c 88bd 0c99 573d
000003a0: 60d8 173d 0bc6 a1bd daed b43d ccea 9c3d
000003b0: e08b 1e3d 50f4 7fbd a018 753c fede b6bd
000003c0: 6994 a0bd 6835 51bc b555 a2bd 689c 2a3c
000003d0: f406 523d 0111 5fbd 60bb 1e3b d72a 80bd
000003e0: 80ad 0c3b 9c36 703d b416 bbbc 2aae 30bd
000003f0: 24e6 993d 1c3f 113d 6bbb 59bd c889 83bc

fc2.bias f4 [84]
0.036435053 -0.040057547 -0.07546529 -0.083329074 0.039753065 -0.07263257 0.004510388 -0.049899198
-0.089834854 0.019909658 -0.078561604 -0.043617442 0.0867202 -0.022898622 0.085541815 -0.048817143
-0.049767338 0.01857043 0.04054928 0.042432398 -0.05194328 0.02126836 -0.007698588 -0.08771739
0.082697526 0.0677152 0.04951401 -0.052325804 -0.013702311 -0.015076511 0.06329973 -0.03829144
0.0027854666 -0.00051439553 -0.07847366 -0.052429292 0.049030647 -0.027171895 0.0021818653 -0.013559818
0.023560114 -0.048802484 0.04326366 0.026224427 -0.012800954 0.0326671 0.021850877 0.076616555
-0.062811926 -0.058678098 0.0719987 0.015504286 -0.025914937 0.055025354 -0.03792782 -0.011049867
-0.016247928 0.0053883046 0.027963713 -0.0029037595 0.058230102 -0.0873522 0.0039927587 0.087403804
0.005283937 0.027850501 -0.0069795176 0.015699849 -0.023954973 0.013500497 0.09051581 0.040113226
0.021140061 0.080722585 -0.022055648 0.057864472 -0.016571566 0.035202518 -0.083712086 -0.07607277
-0.041572664 0.062339455 -0.06571394 -0.07619813
00000000: ec3c 153d 6213 24bd 8c8d 9abd 6fa8 aabd
00000010: 1cd4 223d 63c0 94bd e0cb 933b 1a63 4cbd
00000020: 56fb b7bd 9419 a33c e8e4 a0bd 34a8 32bd
00000030: 5c9a b13d e495 bbbc 8c30 af3d 7cf4 47bd
00000040: d6d8 4bbd 0421 983c 0017 263d 98cd 2d3d
00000050: 7ac2 54bd fc3a ae3c 7044 fcbb 2da5 b3bd
00000060: 525d a93d 44ae 8a3d 34cf 4a3d 9553 56bd
00000070: a87f 60bc 7803 77bc 4aa3 813d 7cd7 1cbd
00000080: 608c 363b 80d8 06ba ccb6 a0bd 19c0 56bd
00000090: 5cd4 483d 9897 debc a0fd 0e3b 002a 5ebc
000000a0: 2401 c13c 1de5 47bd 3c35 313d 9cd4 d63c
000000b0: 18bb 51bc f0cd 053d 9c00 b33c 24e9 9c3d
000000c0: 8aa3 80bd 7258 70bd 0e74 933d b005 7e3c
000000d0: 904b d4bc 4462 613d 345a 1bbd 800a 35bc
000000e0: 601a 85bc 6090 b03b 2814 e53c 004d 3ebb
000000f0: b082 6e3d b6e5 b2bd b0d5 823b c400 b33d
00000100: e024 ad3b bc26 e43c 70b4 e4bb f89c 803c
00000110: 383d c4bc 3031 5d3c 5a60 b93d c44d 243d
00000120: ec2d ad3c e251 a53d 0cae b4bc 4c03 6d3d
00000130: 18c1 87bc 8430 103d 3e71 abbd 0acc 9bbd
00000140: 1948 2abd a857 7f3d 0895 86bd c40d 9cbd

fc3.weight f4 [10, 84]
-0.016849346 -0.02250076 -0.04392755 0.0013878942 -0.051847406 -0.050456043 0.03161437 0.026669122
-0.05681766 0.011716865 -0.021340385 -0.037955195 0.0910342 -0.0135812685 0.06560583 0.06117452
-0.040511265 -0.061370388 0.006307438 0.069521405 -0.01945971 0.06817622 -0.06596248 -0.030619085
-0.023443028 0.061982326 0.037217863 -0.06736283 0.005707979 0.036458977 0.051542155 0.05179874
-0.011797726 -0.050542135 0.038525485 0.039173447 0.108488776 -0.051367536 -0.050032243 -0.00068155676
-0.009100847 0.07889602 -0.09559811 0.053858183 0.050082482 -0.068650305 0.08517907 -0.076036945
0.0024660006 0.007420175 0.0039632246 -0.1022168 0.085535236 -0.07458725 -0.002586335 -0.02285859
-0.025545783 -0.028623685 0.009699769 0.044854544 0.04626248 0.098235674 -0.060754504 -0.009928308
-0.094782025 -0.04927997 -0.0054268166 -0.010091327 0.055932008 0.108090036 -0.107250586 0.044194423
0.053922378 0.098964326 0.07628665 0.047546156 0.032043763 -0.093217984 -0.077387825 0.067463405
0.077930026 0.055256613 -0.09638906 0.049274273 0.05875691 0.10428644 0.06080114 0.02006971
-0.06321995 -0.10558464 0.02831114 -0.054302167 0.05233573 0.08008023 -0.10102354 0.052412905
-0.08525072 -0.10853174 -0.041009896 0.037388794 0.062560104 -0.054022197 0.012402751 -0.0638996
-0.0989638 0.058887564 -0.105520934 0.0026164576 -0.10895142 -0.0843591 0.026747875 -0.03717401
0.049358822 0.017779835 0.014684156 -0.025523216 -0.048262876 -0.043046847 -0.103332184 -0.06272757
-0.03824456 0.004703425 0.089882486 -0.00660225 -0.08415673 -0.061718866 -0.022221029 0.09106452
-0.06086584 -0.09472646 -0.007863797 0.07850886 0.015845746 -0.0350646 -0.059834752 0.09290045
0.08070231 -0.004547097 -0.039046332 -0.0019404218 -0.05418918 -0.013437115 -0.041885912 0.07943983
-0.10542594 0.09861752 -0.03358581 0.02223792 0.040787198 -0.03778746 -0.040782027 0.031345166
-0.019023992 -0.058675807 0.08037806 -0.0343856 0.039856784 -0.0757256 0.0077861473 -0.087978944
0.0074960887 0.077133305 -0.012242205 -0.0014861152 0.031915806 -0.03250823 -0.00020623952 0.10222032
-0.09349859 -0.10200601 0.104055785 0.06124363 0.02177883 -0.008746475 -0.003024079 0.102564596
0.0037104115 0.07262402 0.0045969784 0.08760501 0.034503885 0.09684426 -0.003471434 0.03377957
0.107073955 -0.018232994 -0.051478416 -0.03946916 0.03769069 0.061306395 0.100666635 0.043851174
0.09045782 0.008690558 -0.044155277 0.051547132 -0.052262492 0.09269514 -0.09139863 -0.03870573
-0.001152873 0.027636208 -0.028428108 0.06010636 0.100477405 -0.0037112534 0.08295827 -0.022348456
-0.048600115 0.061785243 0.10110054 0.10570531 -0.034434505 0.08889303 -0.012663864 0.057167687
0.045320235 -0.034974717 -0.09399818 0.011152215 0.018347867 0.0013775751 -0.052125663 0.09406858
-0.063603446 0.014842227 -0.011445396 0.08064983 -0.059535637 -0.007249534 0.09511421 -0.1084971
-0.074441925 -0.004326701 0.07570619 0.0008333847 -0.047578484 0.1028943 -0.008360721 -0.0070308223
0.053385414 -0.075749 0.0461723 0.05433794 -0.023878537 -0.02027461 -0.017367214 -0.010640487
-0.031257786 0.10506847 0.097961746 0.008815251 0.04149235 -0.10283242 0.000952214 0.09949853
00000000: a407 8abc 8453 b8bc 60ed 33bd 00ea b53a
00000010: f25d 54bd ffaa 4ebd 127e 013d 3479 da3c
00000020: a2b9 68bd 18f8 3f3c 08d2 aebc e876 1bbd
00000030: 2370 ba3d f883 5ebc 595c 863d 2292 7a3d
00000040: 24ef 25bd 845f 7bbd a0ae ce3b 3d61 8e3d
00000050: f869 9fbc f99f 8b3d 5617 87bd e0d4 fabc
00000060: 980b c0bc 2ee1 7d3d c271 183d 86f5 89bd
00000070: 000a bb3b 0256 153d de1d 533d ea2a 543d
00000080: 404b 41bc 4505 4fbd e6cc 1d3d 5674 203d
00000090: 5d2f de3d c466 52bd 9cee 4cbd 80aa 32ba
000000a0: b81b 15bc 3d94 a13d f1c8 c3bd 669a 5c3d
000000b0: 4a23 4d3d 8898 8cbd 5d72 ae3d 42b9 9bbd
000000c0: a09c 213b f024 f33b f0dd 813b 0b57 d1bd
000000d0: 192d af3d 33c1 98bd 807f 29bb f041 bbbc
000000e0: 6445 d1bc 387c eabc c8eb 1e3c 66b9 373d
000000f0: ba7d 3d3d c92f c93d b7d9 78bd 58aa 22bc
00000100: 141d c2bd cbd9 49bd 70d3 b1bb 1856 25bc
00000110: f618 653d 4f5e dd3d 32a6 dbbd 3605 353d
00000120: b6dd 5c3d cfad ca3d 2d3c 9c3d c2bf 423d
00000130: 5240 033d 12e9 bebd 827d 9ebd 412a 8a3d
00000140: c799 9f3d c254 623d a167 c5bd d2d3 493d
00000150: 16ab 703d 2194 d53d 9e0a 793d 3c69 a43c
00000160: 7679 81bd c23c d8bd c4ec e73c f36b 5ebd
00000170: fe5d 563d 1b01 a43d 6ee5 cebd eaae 563d
00000180: ee97 aebd e445 debd fef9 27bd fe24 193d
00000190: 831f 803d 6146 5dbd e834 4b3c cbdd 82bd
000001a0: 88ad cabd 1634 713d 5c1b d8bd e078 2b3b
000001b0: ec21 dfbd 77c4 acbd 5c1e db3c c643 18bd
000001c0: 7a2c 4a3d 04a7 913c d095 703c 1016 d1bc
000001d0: 4baf 45bd e451 30bd d39f d3bd 5077 80bd
000001e0: 54a6 1cbd 301f 9a3b 4f14 b83d b057 d8bb
000001f0: 5d5a acbd eccc 7cbd e008 b6bc 0980 ba3d
00000200: 764e 79bd f2ff c1bd 28d7 00bc 41c9 a03d
00000210: f0ce 813c e69f 0fbd 4915 75bd 9742 be3d
00000220: 4147 a53d d0ff 94bb 0cef 1fbd c055 feba
00000230: 79f5 5dbd 5827 5cbc 9090 2bbd 59b1 a23d
00000240: 8ee9 d7bd fbf7 c93d 4691 09bd 4c2c b63c
00000250: 7a10 273d 06c7 1abd 0e0b 27bd ca63 003d
00000260: 34d8 9bbc 0b56 70bd 419d a43d ead7 0cbd
00000270: de40 233d 0616 9bbd f022 ff3b 4e2e b4bd
00000280: c0a1 f53b 11f8 9d3d 8893 48bc c0c9 c2ba
00000290: 26ba 023d 5a27 05bd 0042 58b9 e358 d13d
000002a0: 307c bfbd 87e8 d0bd 331b d53d 9ada 7a3d
000002b0: 8469 b23c 604d 0fbc a02f 46bb 630d d23d
000002c0: 602a 733b e7bb 943d 40a2 963b 416a b33d
000002d0: f253 0d3d 4956 c63d 0081 63bb 725c 0a3d
000002e0: 9749 db3d 5c5d 95bc 08db 52bd 6aaa 21bd
000002f0: 8e61 1a3d 6a1c 7b3d 4f2a ce3d 4a9d 333d
00000300: f341 b93d d862 0e3c 2adc 34bd 1623 533d
00000310: 3211 56bd f3d6 bd3d 342f bbbd e689 1ebd
00000320: 001c 97ba 5465 e23c 10e2 e8bc 1632 763d
00000330: 19c7 cd3d 8038 73bb 07e6 a93d 1c14 b7bc
00000340: ea10 47bd 8612 7d3d cd0d cf3d 077c d83d
00000350: 320b 0dbd 8d0d b63d 187c 4fbc aa28 6a3d
00000360: b6a1 393d a641 0fbd 1e82 c0bd c8b7 363c
00000370: 444e 963c c08f b43a b881 55bd 07a7 c03d
00000380: 8642 82bd d02c 733c 7885 3bbc bd2b a53d
00000390: a4db 73bd 808d edbb 3dcb c23d ba33 debd
000003a0: 0275 98bd 00c7 8dbb d90b 9b3d 8077 5a3a
000003b0: a8e1 42bd 3fba d23d 68fb 08bc d062 e6bb
000003c0: aaaa 5a3d 4b22 9bbd 2a1f 3d3d 7691 5e3d
000003d0: ec9c c3bc f016 a6bc b045 8ebc 7055 2ebc
000003e0: 2a08 00bd 232e d73d 2ba0 c83d d86d 103c
000003f0: e2f3 293d ce99 d2bd 009e 793a e3c5 cb3d

fc3.bias f4 [10]
-0.037224032 -0.06864829 -0.043464385 -0.08070796 -0.031480968 0.009169973 0.04334595 0.100854374
0.024608769 0.016691111
00000000: 3a78 18bd 7a97 8cbd b607 32bd 374a a5bd
00000010: 30f2 00bd a83d 163c 868b 313d bd8c ce3d
00000020: 5498 c93c ccbb 883c

fc4.weight f4 [2, 10]
-0.10248874 -0.10576016 0.18652806 0.0147565305 0.19777247 -0.24504688 -0.043796867 0.27093408
0.1815727 0.14617872 0.057745755 -0.22363234 -0.13177034 -0.13064794 -0.005958855 0.0022644699
-0.0051380694 -0.022513926 0.13548216 -0.22393349
00000000: 9ee5 d1bd c898 d8bd 3601 3f3e 60c5 713c
00000010: de84 4a3e 92ed 7abe 5864 33bd dfb7 8a3e
00000020: 32ee 393e e0af 153e d086 6c3d e0ff 64be
00000030: ceee 06be 93c8 05be 8042 c3bb 8067 143b
00000040: 405d a8bb 206f b8bc d6bb 0a3e d24e 65be

fc4.bias f4 [2]
-0.2923174 0.09295279
00000000: a0aa 95be 085e be3d
