sd_net_ckt.tar (torch_old, 250206 bytes, 12 tensors)

conv1.weight f4 [6, 3, 5, 5]
000000 30 68 aa 3c e0 ca 15 bb d8 58 d7 3d 7c 1c 09 bd
       0.020801634 -0.0022856519 0.105149925 -0.03347443
000010 e0 b9 cf bb f6 7d a3 bd 08 9c 3a 3d 23 6c cf bd
       -0.0063392967 -0.079830095 0.04555896 -0.10128047
000020 a8 be 8e 3c 1e 39 e1 3d 4c 00 a6 bd e6 bc e7 3d
       0.017424896 0.10997222 -0.081055254 0.113153264
000030 28 e8 d8 3d 00 13 80 3b 5a de e8 3d 82 3a cc 3d
       0.10591155 0.003908515 0.11370535 0.09972097
000040 7c 73 45 3d b6 18 e5 bd 9a c1 23 bd 6e b9 53 bd
       0.048205838 -0.11186354 -0.039979555 -0.05169051
000050 80 a2 4f bb 7c fa 2f bd f0 02 bf 3d d5 ac 60 bd
       -0.003168255 -0.04296349 0.09326732 -0.054852325
000060 68 87 1f bd f9 f4 cb bd f8 04 8c 3d e0 70 bb 3b
       -0.038947493 -0.09958834 0.06836885 0.005720243
000070 50 ac 86 3c 50 0b b4 3d dc 65 01 3d 18 8d c3 bc
       0.016439587 0.0879122 0.03159128 -0.02387099
000080 a0 fa 53 bd 00 d3 80 3c 68 e4 3f bd 1c 82 db bc
       -0.051752687 0.015725613 -0.046848685 -0.02679544
000090 d8 ec 89 bd 19 f6 ba bd 84 a0 e9 bd ae 89 94 bd
       -0.067346275 -0.09128971 -0.11407569 -0.07252823
0000a0 e8 0c bc bd 18 3f f1 3c 60 6d 87 3c 4c a9 41 bd
       -0.09182149 0.02944903 0.016531646 -0.047280595
0000b0 e2 75 1a bd 9c ca 6a 3d dc 48 25 3d a6 59 4c bd
       -0.037710078 0.05732213 0.040352687 -0.049890183
0000c0 18 c5 34 bd f8 99 a0 bd 18 20 b9 bd 70 e4 9a bd
       -0.044133276 -0.07841867 -0.090393245 -0.07563102
0000d0 c4 98 80 bd ba 3e 85 bd 60 75 5a 3b 40 77 3b bc
       -0.06279138 -0.06506105 0.003333412 -0.011442006
0000e0 88 65 7d bc 33 ae 7f bd a8 af 34 3d 70 c5 af bc
       -0.0154661015 -0.06242199 0.04411283 -0.02145645
0000f0 c8 7e 4e bc b0 23 41 3d c0 9a d2 ba 34 58 0e 3d
       -0.012603469 0.047153175 -0.0016067848 0.034752086
000100 b0 66 1e bd fa cb ad 3d 88 93 84 3d c6 dc 8f bd
       -0.03867215 0.08486171 0.06473452 -0.07024531
000110 09 79 d1 bd 80 08 4d 3c 4c 00 9a 3d ec b9 7c 3d
       -0.10228164 0.012514234 0.07519588 0.061700746
000120 fa 97 ce 3d 00 32 3d 3c 0c f0 e6 3d 46 52 be 3d
       0.10087581 0.011547565 0.11276254 0.09293036
000130 a7 66 9b bd a8 9a af bd 00 1e 60 bc 14 8a ca bd
       -0.07587939 -0.0857442 -0.013679028 -0.098896176
000140 60 95 e3 3d 00 1b a9 bb 30 82 0e bd e0 cd b3 bd
       0.111124754 -0.0051606894 -0.034792125 -0.08779502
000150 6c 5c 90 bc 40 78 85 bc 60 01 1a 3b d4 1f 1d 3d
       -0.017622195 -0.016292691 0.0023499355 0.03836043
000160 71 06 85 bd 64 cf bc bd a8 c3 20 bc ca 19 30 bd
       -0.06495369 -0.09219244 -0.009812273 -0.042993344
000170 40 d5 82 ba 00 a8 41 b8 10 27 e9 bd 18 9e a1 3d
       -0.0009981766 -4.6171248e-05 -0.11384404 0.07891482
000180 58 6d 66 3d 1c 21 a2 bc 28 a0 82 3d c8 4f 24 3d
       0.056256622 -0.019791178 0.06378204 0.040115148
000190 94 9d 00 bd c4 38 13 3d b2 6b bf bd e4 ab bb bd
       -0.03140028 0.035942808 -0.09346713 -0.09163645
0001a0 40 92 5c bb 80 78 af 3b 82 de 16 bd a4 30 57 3d
       -0.0033656508 0.005354941 -0.036833294 0.05253662
0001b0 68 67 22 3d 3e 08 90 bd fe b3 cd 3d d8 f6 e1 3d
       0.039649397 -0.07032822 0.100440964 0.1103341
0001c0 f8 b2 3a bc ac bc 9c bd bc f1 0c 3d d6 68 88 bd
       -0.011395209 -0.07653174 0.034410223 -0.06660621
0001d0 28 e9 c8 bc 80 ce b6 3c 20 e7 54 3c 2c 18 8f bd
       -0.02452524 0.022315264 0.012994558 -0.06987032
0001e0 c0 0e 3f 3d f8 db d2 3c f4 55 e2 3d 10 7a 34 bd
       0.046644926 0.025739655 0.110515505 -0.04406172
0001f0 4e ce 87 3d 08 dc 47 bc 94 fc 3c 3d e0 24 c1 bc
       0.06631146 -0.012198456 0.046139315 -0.023577154
000200 58 d3 02 3c 40 87 2b 3d da 55 89 3d 40 1f 0a 3d
       0.007984959 0.04187703 0.06705828 0.03372121
000210 38 a7 64 bd f4 ea 5d 3d 40 bb af bb eb d4 a5 bd
       -0.055823535 0.054179147 -0.005362898 -0.080972515
000220 2c c9 64 3d e8 34 be bc 54 6b c7 3d 66 bc 8b bd
       0.055855915 -0.023218587 0.09737268 -0.068230435
000230 d0 4c 31 bd 32 a8 be 3d 46 55 8b 3d 7c 01 3f bd
       -0.043286145 0.093094245 0.06803374 -0.046632275
000240 6b e3 6b bd ab ef c7 bd a2 18 a3 bd 40 69 7d 3d
       -0.05758993 -0.0976251 -0.07963683 0.061867952
000250 62 98 36 bd e8 ca ab bd f0 bd bb 3c 30 be e9 3b
       -0.044578917 -0.08388311 0.022917718 0.007133268
000260 80 a1 8e ba 30 2e 47 bd 3c 2c 7a 3d 21 ec bd bd
       -0.0010881871 -0.048628032 0.06107734 -0.09273554
000270 70 21 e2 3b c0 66 5e 3c 5e 7e 81 3d 22 0f 92 3d
       0.0069009587 0.013574302 0.06322931 0.071317926
000280 3e 73 aa 3d e8 7f 01 3d 28 26 93 bd e4 44 02 bd
       0.08322762 0.03161612 -0.07185012 -0.03180398
000290 ab 4f 6d bd 70 9a 85 3d b8 31 25 3d 78 c8 c6 3c
       -0.057937305 0.06523597 0.04033062 0.024265513
0002a0 92 9c 4e bd 10 32 da 3b 78 0c 1e 3d f2 9c a2 bd
       -0.050442286 0.0066588 0.03858611 -0.07940091
0002b0 ea d2 de 3d 9c 44 72 bd 30 da 46 3c 40 02 63 3d
       0.108800724 -0.059147462 0.012136981 0.055422068
0002c0 b0 47 77 bc b0 dc 39 3d 70 8c 43 bd 80 d3 f9 3c
       -0.015092775 0.04537648 -0.047741354 0.030496359
0002d0 94 81 63 bd 92 25 7f bd a0 d8 64 bb 20 47 8c 3d
       -0.055543497 -0.06229169 -0.0034919158 0.068495035
0002e0 94 60 60 bd d0 e7 a8 bb 5a 3e b0 bd 60 ff 6b 3d
       -0.054779604 -0.0051545873 -0.086056426 0.05761659
0002f0 75 77 cb bd 90 73 ff 3c 3e 7f cc 3d 40 03 90 bc
       -0.09934894 0.031183034 0.09985207 -0.017579675
000300 6a eb 8c 3d 63 7e e6 bd b8 a2 a8 3d a8 67 06 3d
       0.06880839 -0.11254575 0.08234161 0.032813698
000310 ba ae 91 3d 60 ff 82 3b c0 18 70 bb e0 77 86 bd
       0.071134046 0.003997728 -0.0036635846 -0.06565833
000320 80 f9 53 bd a5 8c 81 bd f4 0d 57 bd 6e 80 20 bd
       -0.051751614 -0.06325654 -0.05250354 -0.03918498
000330 d5 46 e6 bd 88 13 1d bc d8 42 72 3d e0 29 ea bd
       -0.11243979 -0.009587176 0.05914578 -0.11433768
000340 ee 4b 92 3d dc 82 96 3d 40 7f 1f bd 98 f4 f6 3c
       0.07143389 0.07349178 -0.038939714 0.030145928
000350 3c a2 6d 3d 62 b1 d2 3d 9c 64 1e 3d 0c 12 a8 3d
       0.058016047 0.10287739 0.038670167 0.08206567
000360 00 0d b0 3c 81 05 dc bd e4 ab 2d 3d e8 69 e0 3d
       0.021490574 -0.10743237 0.042400256 0.109577
000370 b9 ef 77 bd d6 1d 8b 3d 34 45 e2 bc d8 9a 42 3d
       -0.06053135 0.067928 -0.02762089 0.04751095
000380 c8 36 19 bd c0 bf f9 3a ec 2f 8b bd 66 8f a9 3d
       -0.03740576 0.0019054338 -0.0679625 0.08279304
000390 80 d1 15 ba 4d f9 ce bd 74 e0 e5 bd 4a 87 c9 3d
       -0.0005715117 -0.10106144 -0.11224452 0.098402575
0003a0 70 4c 7d 3c b8 c3 3c 3d 90 3c df 3b c0 50 e2 bb
       0.015460119 0.04608509 0.0068126395 -0.006906599
0003b0 8e 2d 80 3d a8 d0 7f 3d 40 8a 8f 3d 55 47 ac bd
       0.06258689 0.06245485 0.07008791 -0.08412043
0003c0 c8 03 2e bd 9c 02 9e bd f6 6e d4 3d c0 12 35 3d
       -0.042484075 -0.077153414 0.103727266 0.044207335
0003d0 ec d6 70 3d 6a 68 80 bd f2 d6 c6 bd bc c0 42 bd
       0.058798715 -0.062699154 -0.09708966 -0.047547087
0003e0 a0 6e 7a 3d 25 71 da bd 28 5a c4 bc f8 21 2c bc
       0.061140656 -0.10666112 -0.023968771 -0.010506146
0003f0 f0 77 8c 3b b0 7b e1 3b e8 2d bc 3c 46 ec a4 bd
       0.0042867586 0.0068812 0.022971109 -0.08052878

conv1.bias f4 [6]
000000 52 95 e4 3d ee a2 dd bd 0a f6 00 bd d8 72 57 3d
       0.11161293 -0.10822092 -0.03148464 0.052599758
000010 f8 dd 66 bc ec d2 89 bd
       -0.014091007 -0.06729683

conv2.weight f4 [16, 6, 5, 5]
000000 ed 40 9f bd 50 c4 db 3b 29 33 72 bd 56 6e bc bc
       -0.077760555 0.006706752 -0.05913082 -0.023001831
000010 f0 f4 29 3c b4 a9 6c bd 2b f9 90 bd b0 08 9b bb
       0.010373339 -0.05777903 -0.07078775 -0.0047312602
000020 b4 bf 5b 3d f0 6c 9e bb 16 8a 8f bd 4e 28 00 bd
       0.05364962 -0.0048347637 -0.0700876 -0.031288438
000030 9a 80 14 3d ea 83 16 3d 4a 7a a1 bd 19 04 49 bd
       0.036255457 0.036746897 -0.07884653 -0.049076173
000040 96 af 77 bd fe 00 7d bd e0 bb 21 3b 4f e8 0c bd
       -0.060470186 -0.061768524 0.0024678633 -0.034401234
000050 ec 20 91 bd 08 ce 53 bd 9e 5d 99 3d 76 0d 72 bd
       -0.070863575 -0.05171016 0.07488559 -0.05909487
000060 0b b7 0b bd ee fa 83 bd 18 22 0a bc 51 62 4c bd
       -0.03411011 -0.064443454 -0.00843098 -0.04989845
000070 00 bb ce 3c 06 a5 a1 3d 1d 64 8b bd 40 26 0d bb
       0.025235653 0.07892804 -0.068062045 -0.0021537691
000080 48 3b 9b bc 00 66 6b 3d 1a 23 37 bd 16 45 8a 3d
       -0.018949166 0.05747032 -0.04471121 0.06751458
000090 73 8c 18 bd 70 18 5a 3c 98 33 fc 3c 68 6a 34 3c
       -0.037243318 0.01331149 0.03078632 0.011011697
0000a0 48 fa 4c bc e5 83 04 bd 02 39 f6 bc dc 18 1d 3d
       -0.012510844 -0.032352347 -0.03005648 0.038353786
0000b0 32 1c 69 bd e4 c5 96 3d 80 a5 4e bb 3a 7c a2 bd
       -0.056911655 0.073619634 -0.003153175 -0.079338506
0000c0 d8 00 fe 3c 18 f2 bf 3c 40 74 c8 3a 7d f3 92 bd
       0.031006262 0.023430869 0.0015293434 -0.07175348
0000d0 ee 89 a2 3d e8 0f 7f 3d f4 b5 cf bc 92 7f 88 3d
       0.07936464 0.06227103 -0.025355317 0.06664957
0000e0 f0 18 26 3c 9f 96 04 bd 40 d6 c5 ba 3c 02 8a bc
       0.0101377815 -0.032370206 -0.0015093759 -0.016846769
0000f0 ac a4 e7 3c 10 a1 e3 bb 6d a1 82 bd c5 d6 17 bd
       0.028276764 -0.0069466904 -0.06378446 -0.037070055
000100 18 39 26 bc 34 8e 85 bc 52 9e a3 3d cc e7 0a 3d
       -0.010145448 -0.01630316 0.079891816 0.033912465
000110 c8 11 23 3d ae 1a 05 bd e4 57 93 bc 9d 15 9c bd
       0.03981188 -0.032496147 -0.017986245 -0.0762131
000120 d4 7e ae 3c 9c 9c d3 bc 98 88 9d bd bc 30 54 3d
       0.02130071 -0.025831513 -0.07692069 0.05180429
000130 80 d7 41 ba 3a 2e a4 3d d4 77 48 3d 08 9d 74 3d
       -0.0007394478 0.080166295 0.048942402 0.05972007
000140 90 6d 2a bc 20 f5 31 3d 9c 96 85 bd 5a 2b a7 3d
       -0.010402098 0.04344666 -0.06522867 0.081625655
000150 6d 51 55 bd f4 60 72 bd 28 74 ab 3c fc f6 8d 3d
       -0.052079607 -0.059174493 0.020929411 0.06931874
000160 d8 1d 2c 3d 03 e5 98 bd 30 6b 71 3c f4 73 90 3c
       0.04202065 -0.074655555 0.014735028 0.017633416
000170 38 d2 0b 3d 3c 99 45 3d 60 f8 c9 bb c2 77 84 bd
       0.034136027 0.04824184 -0.006163642 -0.064681545
000180 5c e9 61 3d 84 4b 79 bd 42 6d bb bc 9f a1 8a bd
       0.05515419 -0.060863033 -0.022879247 -0.06769108
000190 00 51 6b bb a4 c9 57 3d 50 eb 7e 3c e0 de c8 bc
       -0.0035906434 0.052682534 0.015559033 -0.024520338
0001a0 49 26 7d bd 1e e2 9c 3d b4 a7 d1 3c 20 8f 2d 3b
       -0.06180409 0.07660316 0.025592662 0.0026483014
0001b0 c9 73 45 bd 7a 81 93 bd 10 d0 29 3c 70 72 45 bc
       -0.048206124 -0.0720243 0.010364547 -0.01205121
0001c0 30 70 11 3d 28 5d 56 3d 0a 89 2c 3d 0a 8a ae bc
       0.03550738 0.052334934 0.042122878 -0.021306057
0001d0 40 3a c9 bb b8 33 13 bc a0 b7 af bb 70 cc 94 bb
       -0.006140977 -0.008984499 -0.005362466 -0.0045409724
0001e0 18 ea 10 bd 52 96 9b bd c5 38 4d bd 40 3f 58 3d
       -0.0353795 -0.07597031 -0.050102968 0.052794695
0001f0 20 a6 23 bb 7a 81 aa bc 60 61 c1 bc f4 46 03 3d
       -0.0024970844 -0.020813692 -0.023606002 0.032050088
000200 d8 91 d1 3c dc 33 80 3d a6 03 da bc 08 91 03 3c
       0.025582239 0.062598914 -0.026613068 0.008030184
000210 90 d8 70 3d c8 9c c7 3c 87 3e 3b bd f4 a0 3b 3d
       0.05880028 0.024366751 -0.045713928 0.045807794
000220 d4 41 90 3d 7a 35 a6 3d 5d ac 7d bd 70 d8 c2 3b
       0.07043806 0.081156686 -0.061931957 0.0059462115
000230 1e c5 18 3d 5b 98 95 bd 00 60 3f 3d 00 47 d2 3a
       0.03729736 -0.0730445 0.046722412 0.0016042888
000240 c6 e6 79 bd 30 e2 b8 3b c0 86 b2 bb 84 cd d8 3c
       -0.0610111 0.005642198 -0.0054481924 0.026465185
000250 00 a3 a0 3b bc 46 e0 3c 00 d3 a6 b9 50 b4 85 3c
       0.0049022436 0.027377479 -0.00031819195 0.016321331
000260 7b 1f 4e bd f8 c8 e3 3c d0 99 14 bd 28 c9 ef bc
       -0.05032299 0.02780579 -0.0362795 -0.029270723
000270 f8 65 44 3d 00 43 df 3b 12 49 cd bc 27 3d 95 bd
       0.047948807 0.006813407 -0.025059257 -0.072870545
000280 e6 3e d5 bc c8 12 29 3d 50 f6 86 3d 70 08 93 3d
       -0.026030969 0.041277677 0.06589949 0.07179344
000290 06 25 96 3d d2 5e 51 bd 8d 5c a2 bd 45 85 4a bd
       0.073312804 -0.05111582 -0.07927809 -0.049443502
0002a0 9c ad 1a 3d b4 0b b2 3c 34 2b 53 3d 58 31 6e 3c
       0.037763223 0.021734096 0.051554874 0.014538132
0002b0 f8 28 98 3d f8 af 58 3d 30 f6 b6 bb 82 e9 8c 3d
       0.07429689 0.052902192 -0.005583547 0.068804756
0002c0 fb 30 59 bd 60 f2 b2 bb 10 8a 06 bc a0 36 12 bc
       -0.053025227 -0.0054610223 -0.008211628 -0.008924156
0002d0 ac 3b 76 3d 20 09 de bc 78 32 11 3d e0 ff ed bb
       0.0601155 -0.02710396 0.03544852 -0.0072631687
0002e0 de b5 d7 bc 9b ad 23 bd 68 6b 66 3d dc c1 2e bd
       -0.026331838 -0.039960485 0.056254774 -0.042665347
0002f0 88 60 21 3c 72 d2 29 bd 86 59 8d bd 20 03 73 3c
       0.009849675 -0.041460462 -0.06901841 0.014832288
000300 90 ac 4c bc 04 0c 6d bd c8 03 66 bc 96 83 2d 3d
       -0.012492314 -0.057872787 -0.014038987 0.04236182
000310 a0 dc fa bb 5f 1c 22 bd 10 ce 13 3d 44 23 51 3d
       -0.007655695 -0.039577838 0.03608519 0.051059023
000320 84 07 2a bd 70 f6 c3 bb b4 55 46 3d 1c 5a 7f bd
       -0.041511074 -0.0059803054 0.048421577 -0.062341794
000330 38 57 5c 3c 74 14 2c bd e0 cd 3a 3d 00 6e 46 3a
       0.013448529 -0.042011693 0.045606494 0.0007569492
000340 ce 6d b7 bc 78 01 71 3d 80 b3 7f 3b 5c 3b f2 3c
       -0.022391226 0.05883929 0.0039016902 0.02956932
000350 f4 86 fc bc 58 b5 6b 3c 5e 65 94 3d 18 9f 47 bc
       -0.03082607 0.014386497 0.07245897 -0.012183927
000360 0a e7 bb bc 8c 0f 1d 3d 00 ca ca bb 50 95 79 3c
       -0.022937316 0.038344905 -0.006188631 0.015233353
000370 e4 08 91 3d 9d b9 a3 bd 08 a8 76 3d e8 a1 5c 3d
       0.07081774 -0.07994387 0.06021884 0.053865343
000380 a8 e8 6b 3d 1e 08 f9 bc 08 2c 86 bd a6 b9 d7 bc
       0.057594925 -0.030399378 -0.06551367 -0.026333641
000390 f2 82 24 3d 98 d9 89 3c 02 85 88 3d ac be 82 bc
       0.04016394 0.01682739 0.06665994 -0.01596006
0003a0 d2 3c 9c bd 38 81 6c 3d 40 bb 7a 3b c0 20 82 3c
       -0.07628788 0.05774042 0.0038258582 0.015884757
0003b0 93 8f 8f bd 00 c3 66 3b 59 ad 45 bd ee dc 45 bd
       -0.070098065 0.0035211444 -0.04826102 -0.048306398
0003c0 fc 63 7d bd f0 81 78 3d 80 9b cf bb b6 62 23 3d
       -0.06186293 0.060670793 -0.0063356757 0.03988906
0003d0 c0 a6 66 bd 90 6e 6b bd 5f 0b 8a bd 2e 40 7e bd
       -0.05631137 -0.057478487 -0.0674045 -0.062072925
0003e0 c0 57 89 bb 80 02 f4 3a b1 45 0f bd 20 44 9e bd
       -0.004191369 0.0018616468 -0.034978572 -0.077278376
0003f0 60 ce 9e 3d 60 e2 0e 3d 79 60 3b bd c8 57 3b 3d
       0.07754207 0.034883857 -0.0457463 0.04573801

conv2.bias f4 [16]
000000 e0 68 99 3d b8 31 7f 3d 0e 8d 0a 3d c0 be c0 bc
       0.074907064 0.062303275 0.033825926 -0.023528457
000010 d2 b3 93 bd e2 d7 18 3d 9a a9 5f bd 5c f6 3e 3d
       -0.072120324 0.037315257 -0.054605104 0.046621665
000020 b1 87 8d bd bc a0 46 3d 0e cb 9f bc d4 7c d0 3c
       -0.06910647 0.048493132 -0.019506004 0.025450148
000030 04 28 2b 3d 06 96 a1 3d 2a 1a 41 bd 40 cb 94 3d
       0.04178621 0.07889943 -0.047144093 0.07265329

fc1.weight f4 [120, 400]
000000 48 a8 11 bd 22 d2 c3 3c c7 b7 f6 bc dc 67 8d bc
       -0.035560876 0.02390391 -0.030116929 -0.017261438
000010 b0 40 e8 bb 58 a5 81 3b 27 d9 cc bc ac 12 0b bd
       -0.0070877895 0.003956478 -0.02500589 -0.033953354
000020 4c 6f 2c 3c 30 88 24 bd a5 c9 0c 3d d7 90 49 3d
       0.010524582 -0.04016894 0.03437199 0.049210396
000030 80 81 cf b9 00 f2 54 bc 80 88 12 bb b0 09 f2 3b
       -0.00039578602 -0.01299715 -0.0022359192 0.0073864087
000040 40 da ee 3a 97 ca 01 3d 20 38 13 3b e2 38 b2 3c
       0.0018223003 0.031687345 0.0022463873 0.02175564
000050 94 ae 2a 3c ce 85 d7 3c 0a 09 8b bc 5e 46 8e 3c
       0.010417599 0.02630892 -0.016972084 0.017367538
000060 84 90 64 3c 11 9b 08 3d d0 cd 52 bb 8d 31 48 3d
       0.013950471 0.033351008 -0.003216613 0.04887538
000070 68 b6 cd bb 4a 33 f2 bc e6 21 85 3c dd fc 03 3d
       -0.006277848 -0.029565472 0.016251516 0.03222357
000080 b7 98 36 3d 06 47 bf 3c 4d 29 0b 3d a0 ce 79 bb
       0.044579234 0.023349296 0.033974934 -0.0038117543
000090 00 db 63 3b ce e1 03 bd 84 31 5d 3c 35 9d 0c bd
       0.0034767985 -0.032197766 0.013500575 -0.03432961
0000a0 df d2 2c 3d a8 8b 5c bc 09 4c 45 3d a4 53 81 bc
       0.04219329 -0.013461031 0.048168216 -0.015786953
0000b0 90 93 92 bc d0 63 77 3b 68 24 09 bd 07 10 39 bd
       -0.017892629 0.0037748702 -0.033481985 -0.0451813
0000c0 87 de 13 3d 57 d1 2a 3d 84 67 81 bc 60 2e 23 bd
       0.03610089 0.04170355 -0.01579643 -0.03983915
0000d0 06 67 8d 3c 13 7b e5 bc ed 5e 2c 3d 6e e3 8d 3c
       0.01726104 -0.028012788 0.042082716 0.017320361
0000e0 0e 93 c0 3c 58 81 15 3c a3 8f fd bc 15 6b 27 3d
       0.023507621 0.009125076 -0.03095228 0.040873606
0000f0 2c e7 88 bc d0 82 fd 3b 00 0c 39 3c b7 60 e0 bc
       -0.016711794 0.0077365413 0.011294365 -0.027389867
000100 bb bc 46 3d e8 7a 2e bd 00 48 21 bd 30 4d f8 3b
       0.04851983 -0.04259768 -0.039375305 0.007577561
000110 40 2a c3 3a 9d aa 24 bd c0 d0 95 3b 75 43 0c bd
       0.0014889911 -0.040201772 0.004572004 -0.03424402
000120 cc 3d 60 bc 33 5c 40 3d 62 d5 87 3c 00 50 c1 39
       -0.0136866085 0.046962928 0.016581241 0.00036871433
000130 a8 81 48 3c a0 76 03 3c 12 61 ff 3c 06 77 da 3c
       0.012237944 0.008023888 0.031174216 0.026668083
000140 0c c1 06 3c 9d b7 17 3d b3 79 13 3d 0a 5c ee 3c
       0.008224737 0.03704034 0.036004733 0.029096622
000150 40 7b e8 ba d0 6f 28 bd 20 3b 4f bb 52 60 c8 3c
       -0.0017736927 -0.041122258 -0.0031620935 0.024459992
000160 d8 fc b3 3b da 88 98 bc 30 a4 97 bc 80 ab 36 3b
       0.005492788 -0.018619943 -0.018510908 0.0027873218
000170 ab 0a 24 3d 13 92 28 3d e3 0b 9d bc 4c 92 34 3c
       0.040049236 0.041154932 -0.019170707 0.011021208
000180 2e d8 cf 3c de bd 11 bd fb 04 38 3d da 2c f9 3c
       0.025371637 -0.035581462 0.044926625 0.030416895
000190 50 ac e6 3b b0 2f b0 bb e0 66 0e bb 90 e0 98 3b
       0.007039584 -0.0053767785 -0.0021728799 0.004665442
0001a0 9c 38 06 bd 46 6e 03 bd 2d 7d 1a 3d 06 cb eb 3c
       -0.03276883 -0.032087587 0.037717033 0.028783333
0001b0 4a a9 fd bc 22 7a ec 3c a1 3d 11 3d c6 09 df 3c
       -0.030964512 0.028866831 0.035459165 0.02722634
0001c0 19 5b 27 3d 98 b7 b4 3b 78 5a 3a 3c 30 eb 35 bb
       0.040858362 0.00551505 0.0113741085 -0.002775859
0001d0 32 2b 24 bd a8 f5 66 bc e0 89 c2 bc d2 dc 42 bd
       -0.040080257 -0.014096655 -0.023747385 -0.047573872
0001e0 b0 25 ab 3b 3a 2d 38 bd 50 0c 48 bb 0e d5 cf 3c
       0.0052229986 -0.044965006 -0.0030524917 0.025370147
0001f0 12 02 b6 3c 2a b8 a2 bc 64 ce 6d 3c f2 65 d4 3c
       0.022217784 -0.019863207 0.014514539 0.025927518
000200 28 12 20 bd ce 0c b7 3c 28 fa 3d 3c 14 db 5a bc
       -0.039079815 0.022344973 0.011595286 -0.013357896
000210 10 8d ea bc b5 6a 1d 3d 9b af 2d 3d 08 ef 14 3c
       -0.028631717 0.038431842 0.0424038 0.009090193
000220 19 df 3f 3d 90 85 04 bd 08 23 72 bc 30 d7 a1 3b
       0.046843622 -0.032353938 -0.01477886 0.0049389824
000230 a3 41 34 3d 67 d6 31 bd 00 e0 01 b9 da f1 e6 3c
       0.04400791 -0.04341736 -0.00012385845 0.028191496
000240 8c 1a 7b bc 95 ed 37 bd 60 8a ce 3a 20 d8 3a 3c
       -0.0153261535 -0.04490431 0.0015757792 0.011404067
000250 20 88 1e bc e0 03 bf bc be 4c f2 3c 08 10 5c bc
       -0.009676009 -0.023317277 0.02957761 -0.0134315565
000260 41 35 26 3d 06 9e b6 3c 20 f9 da bc 1e 29 dd 3c
       0.04057813 0.022292148 -0.02673012 0.026997145
000270 c0 21 c6 3b 0a 95 92 bc 40 b9 c0 ba ef 85 07 3d
       0.006046504 -0.017893333 -0.0014703646 0.033086713
000280 c1 f1 0f 3d f8 2c 15 bc 78 56 26 3c f5 65 11 3d
       0.035142664 -0.00910496 0.010152452 0.035497624
000290 a9 a1 1c 3d 8a 8f f5 bc 88 8f 2b bd d7 13 a7 bc
       0.03824011 -0.029975671 -0.04188493 -0.020395203
0002a0 1a 3a dc 3c 40 23 46 ba 8e f5 25 bd 9a 4b b2 3c
       0.026883174 -0.0007558353 -0.040517382 0.021764565
0002b0 21 f8 40 3d 80 62 a2 b9 60 f2 4b bb 30 f4 a2 3b
       0.047111634 -0.00030972436 -0.0031119809 0.004972957
0002c0 10 a8 f7 bb d0 87 87 bb 1e fa de 3c ad a5 c0 bc
       -0.0075578764 -0.004136063 0.027218875 -0.0235165
0002d0 80 f5 49 bc a0 09 9c 3a a3 00 9e bc f0 dc d1 bb
       -0.012326598 0.0011904724 -0.019287413 -0.0064045116
0002e0 1b 71 47 bd 57 ec 2c bd 54 bd 3b 3c 30 ee 88 bb
       -0.04869185 -0.04221758 0.011458714 -0.004178785
0002f0 07 67 0e 3d 30 7c 7b bb f0 d3 db bb 40 38 d2 ba
       0.034766223 -0.0038373582 -0.0067086145 -0.0016038492
000300 01 b7 4c 3d d5 e5 0d bd 8c 0b 95 bc 1d 3c 0d bd
       0.049979214 -0.034643013 -0.018193983 -0.034481157
000310 b8 f3 2f bd 4c 61 30 bc 17 c8 39 bd 24 9f 61 3c
       -0.042957038 -0.010765385 -0.045356836 0.013770852
000320 83 6d f9 bc 9e e1 bc 3c 26 ff a1 3c 95 63 23 3d
       -0.030447727 0.023056801 0.019774985 0.03988989
000330 6c a9 5d bc f2 49 31 bd 00 53 49 3b 00 3a eb 38
       -0.013529163 -0.04328341 0.0030719638 0.000112164766
000340 fc ec 5f 3c 4c 18 2f 3c f2 ab a1 3c 70 f9 a5 bb
       0.013667341 0.010686945 0.01973531 -0.0050651357
000350 45 1a 2e 3d 30 d2 88 bb d7 bb 4a 3d 29 f0 0c 3d
       0.04250552 -0.004175447 0.049495544 0.034408722
000360 50 34 e7 3b c8 72 17 bc 38 8a 27 bc 58 3f 2a bc
       0.0070557967 -0.009243675 -0.010225825 -0.010391079
000370 6d f0 10 3d 90 4c 8d bc 30 49 31 bb aa d3 39 bd
       0.035385538 -0.017248422 -0.002705168 -0.045367874
000380 58 db e6 3b 34 19 71 3c d8 2c b0 3b 5c 3c 58 3c
       0.007045191 0.014715482 0.0053764395 0.013197985
000390 46 5c 1c bd 88 f5 3c 3c 12 a2 cd 3c 94 cb 49 bc
       -0.038173936 0.011533149 0.025101695 -0.012316603
0003a0 66 92 8a 3c 30 b4 f8 bc 74 52 57 3c 74 47 5b bc
       0.016915511 -0.030359358 0.013142217 -0.013383735
0003b0 00 81 8b bc 66 5b 8a 3c 00 23 f5 39 6d b0 ab bc
       -0.017029285 0.016889285 0.00046756119 -0.02095815
0003c0 a0 03 23 bb 0c 19 02 bc d2 b4 de 3c 38 4c 01 bd
       -0.0024873987 -0.007940542 0.027185831 -0.03156683
0003d0 4b e9 37 bd 7d e0 cc bc 8a 39 d1 3c 15 b8 2b bd
       -0.04490022 -0.025009388 0.025540132 -0.0419236
0003e0 63 87 38 3d 40 1c 9f 3b 04 63 4e 3c 22 93 ae 3c
       0.04505099 0.0048556626 0.012596849 0.021310393
0003f0 d8 53 d2 bb 1a 71 0f bd a8 1c fb 3b 1d 0b 1a 3d
       -0.0064186864 -0.03501997 0.007663328 0.037608255

fc1.bias f4 [120]
000000 8a 1a a8 3c c0 f0 ba 3b 48 0a 48 bc 59 3f 10 3d
       0.020520467 0.005704969 -0.0122094825 0.035216663
000010 72 f7 c3 3c a2 e3 85 3c dd c3 3b 3d 3f 66 2d bd
       0.023921702 0.016343895 0.045841087 -0.042333838
000020 96 ed 1f bd fc 7f 59 3c 6a a3 df bc b3 08 35 bd
       -0.03904494 0.013275143 -0.027299602 -0.04419775
000030 98 e4 0e bc 02 dd 91 3c 6a 32 1e bd b9 c3 3d 3d
       -0.008721493 0.01780558 -0.038622297 0.046329234
000040 23 b9 19 bd 57 64 4a bd e3 e1 f7 bc 61 48 25 3d
       -0.037530076 -0.049412098 -0.030259078 0.04035223
000050 30 71 8b bb 80 31 44 bb a6 57 15 bd 90 68 4c bd
       -0.0042554364 -0.002993673 -0.03646054 -0.049904406
000060 fc fe 76 3c 50 94 84 bb 00 ac 6b 3b 56 50 c0 3c
       0.015075441 -0.0040460005 0.0035960674 0.023475807
000070 2c 08 83 bc 09 e2 33 3d 6c 05 7d 3c ed 53 d0 bc
       -0.015995108 0.043916736 0.015443187 -0.025430644
000080 ab 02 14 bd 78 65 38 bc a2 9f b1 3c 48 38 26 3c
       -0.036135357 -0.011254661 0.021682564 0.010145254
000090 fb f2 0c bd c3 8a 3d bd 77 0a e7 bc 00 15 d1 bc
       -0.03441141 -0.04627491 -0.028203232 -0.025522709
0000a0 fd 06 a9 bc 9d ec 17 bd b0 bd c9 3b 0d 73 38 bd
       -0.020633215 -0.037090886 0.0061566457 -0.045031596
0000b0 dd c6 c2 bc 9a d7 dc 3c 0c 41 0e bc 51 2d 4c 3d
       -0.023776466 0.026958276 -0.008682501 0.049847905
0000c0 a6 94 99 bc 8f c0 33 bd 1d 1d b8 bc f0 f4 a1 bb
       -0.018747639 -0.04388481 -0.02247482 -0.004942529
0000d0 40 b5 a3 3b 63 77 39 3d d8 0b d4 bb 78 e7 37 3c
       0.004995972 0.04527987 -0.0064711384 0.01122462
0000e0 3e e8 b5 3c ee ab 1c bd 0c ac 32 bc 80 07 94 3b
       0.022205468 -0.038249902 -0.010905277 0.0045174956
0000f0 e8 4d 15 3c 50 4e 3c bb 80 cf de bc 10 64 a2 3b
       0.009112813 -0.0028733201 -0.027198553 0.004955776
000100 60 9f fa 3a 78 a6 39 3c 4c 62 60 bc 9b f9 11 3d
       0.0019120984 0.011331193 -0.013695311 0.035638433
000110 52 b2 b8 3c 08 ac 37 bd ea 17 fd bc 28 e9 37 3c
       0.022545967 -0.044841796 -0.030895192 0.011225022
000120 26 16 21 bd 9a a7 e0 3c 81 c7 12 3d ea cf 0f bd
       -0.039327763 0.027423669 0.035834793 -0.03511039
000130 00 99 8d 3b d3 25 cb bc 84 bd 6f 3c 76 2c c7 3c
       0.0043212175 -0.02479831 0.014632586 0.024313193
000140 40 45 6b bc 0a 26 a0 3c 8d 54 18 bd ff b8 45 3d
       -0.014359772 0.019549388 -0.03719001 0.04827213
000150 00 a0 40 37 d0 53 dd 3b 94 4d 19 3c 59 9e 30 3d
       1.1481345e-05 0.006754376 0.009356875 0.043119762
000160 1a c9 c2 3c d2 8d ab 3c 1a c9 c5 bc a0 44 80 3a
       0.023777533 0.020941649 -0.024143744 0.0009786077
000170 62 f7 3d bd 00 2f d0 bc 80 84 06 bd 72 57 41 bd
       -0.0463785 -0.025413036 -0.032841206 -0.047202535
000180 69 5f 18 3d 00 04 67 bb 28 fe 4a bc 39 c1 2a 3d
       0.037200365 -0.0035250187 -0.012389697 0.041688178
000190 7b 36 1a bd 77 c6 3d bd c3 ca f6 bc ea d5 a3 bc
       -0.037649613 -0.04633185 -0.030125981 -0.019999463
0001a0 4c 7d 47 bc 5a 81 95 bc 62 dc 08 bd d9 f8 47 3d
       -0.012175869 -0.018250156 -0.0334133 0.048821304
0001b0 25 b8 47 3d ef 7e 39 3d 47 6b ee bc 1b 6d 41 bd
       0.0487596 0.04528707 -0.029103888 -0.04722319
0001c0 75 8c 45 3d 0a 72 da bc 12 48 e3 3c 6e b3 0e bd
       0.048229653 -0.026665706 0.027744327 -0.034839086
0001d0 c6 d6 9a 3c 68 45 46 bd 5c 9b 75 3c f5 f3 39 3d
       0.01890124 -0.048406035 0.014990654 0.04539867

fc2.weight f4 [84, 120]
000000 5d 0a 26 bd 3a 3d 01 bd f0 b9 a9 3c d8 7f b8 bc
       -0.040537227 -0.03155253 0.020718545 -0.022521898
000010 02 48 19 bd 30 1c f8 bb b5 52 6c bd cc f9 0a bd
       -0.037422188 -0.0075717196 -0.057696063 -0.03392963
000020 a8 b4 8f bc 42 55 95 bd f8 0a a8 bc 34 16 55 3d
       -0.017542198 -0.07291652 -0.020513043 0.052023128
000030 f4 39 9c 3c 70 e5 dc bc b0 69 5f bc d0 c5 63 3c
       0.019070603 -0.026964873 -0.013636038 0.013902143
000040 14 f1 a6 3c 3c ef 95 3d 05 35 8b bd aa 23 59 bd
       0.020378627 0.07321021 -0.06797222 -0.053012528
000050 d6 04 5d bd e4 64 8a 3c 97 0e 60 bd 9c fe ea 3c
       -0.05395969 0.016893812 -0.054701414 0.02868586
000060 88 70 1a 3c b8 0e 0e 3d 54 f4 1c 3d 6c 2c 25 3d
       0.009426244 0.034682006 0.038318947 0.040325567
000070 e0 8b 1c 3d 47 fb 6c bd db dd 71 bd e4 e4 22 bd
       0.038219333 -0.057856824 -0.05904947 -0.03976907
000080 9f 79 a5 bd 40 dd 3a 3d 3a 01 96 bd 34 a0 83 3d
       -0.08079838 0.045621157 -0.07324453 0.06427041
000090 25 48 40 bd b0 c4 92 3c b6 62 9c bd b6 e4 b6 bd
       -0.046943802 0.017916054 -0.07636015 -0.08930342
0000a0 64 66 84 bc db 85 6b bd 48 01 2e 3d b4 42 e0 bc
       -0.016162105 -0.0575007 0.04248169 -0.027375557
0000b0 70 57 84 bd a4 19 db 3c 14 53 15 3d 74 47 f9 bc
       -0.0646199 0.026745625 0.036456183 -0.03042958
0000c0 30 36 7d bd 40 20 c4 bb 64 1c 51 3d b1 8d ac bd
       -0.061819255 -0.00598529 0.051052466 -0.08425463
0000d0 84 79 96 3c c3 5e 63 bd a4 29 f7 3c c0 0e 80 3d
       0.01836849 -0.055510294 0.030171223 0.06252813
0000e0 30 0e 8c 3c a0 08 c4 3c 38 a6 a7 3c 23 06 8e bd
       0.017096609 0.023929894 0.020465001 -0.06934764
0000f0 65 b7 8e bd e0 c4 cd 3c ba 54 82 3d 4c 4b 5b 3d
       -0.069685735 0.025118291 0.063638166 0.053538606
000100 45 68 44 bd f4 52 7c bd a0 ac 89 3d 5c cb ac 3d
       -0.047951 -0.061602548 0.06722379 0.08437225
000110 50 17 98 bc 11 7d b7 bd e8 a9 37 bd d7 e6 85 bd
       -0.018565804 -0.089594014 -0.04483977 -0.0653817
000120 9e 39 12 bd 24 c6 b6 3c 40 3c eb 3b 74 da 89 3d
       -0.03569948 0.022311278 0.007178813 0.0673112
000130 00 b2 fc 3a b7 40 31 bd 00 93 e9 39 6c 2a cc 3c
       0.0019279122 -0.043274608 0.00044550747 0.024922572
000140 e0 b3 06 3b 2c 15 da bc 12 d2 b9 3d bb 79 3e bd
       0.0020553991 -0.026621424 0.09073271 -0.04650281
000150 00 a4 fe b9 32 57 98 3d dc 34 7a 3d 50 55 97 bc
       -0.00048568845 0.07438506 0.061085567 -0.018473297
000160 40 03 e3 3c c8 19 9e bc 1c 70 56 bd 60 95 e9 bc
       0.02771151 -0.019299403 -0.05235301 -0.02851361
000170 e0 10 65 bb c8 a1 ff 3c 20 1c da 3b 11 40 98 bd
       -0.0034952685 0.031205073 0.006656185 -0.07434095
000180 3e 20 b6 bd 13 b6 80 bd 00 cb d2 3b 08 c5 20 3d
       -0.088928685 -0.06284728 0.006432891 0.039250404
000190 30 fe 1e 3c b2 5c 9b 3d 60 75 7c bd 98 b0 c4 bc
       0.009704158 0.075860396 -0.061635375 -0.024009988
0001a0 8c ac 80 bd 64 d7 71 3d 60 6f 10 3d 8c 58 a8 3d
       -0.06282911 0.059043303 0.035262465 0.08220014
0001b0 52 11 06 bd c8 ac 9f bc 18 d7 1d bc 00 e4 4e b9
       -0.03273136 -0.019491568 -0.009633802 -0.00019730628
0001c0 74 8d 88 3c 6a 9b f0 bc 5d 15 ba bd 70 47 19 bd
       0.016669013 -0.029370982 -0.09086106 -0.037421644
0001d0 f0 32 46 3d 2e c8 b7 3d 00 95 3d 3b 9a 18 85 3d
       0.04838842 0.08973728 0.0028927922 0.06498833
0001e0 aa f5 a9 bd 48 a4 89 3d a0 ce 61 3d 94 d4 cc bc
       -0.0829881 0.06720787 0.055128694 -0.025003709
0001f0 00 69 1f 3d 6e 30 f3 bc 6c 6e 8c bd 30 97 75 bc
       0.038918495 -0.029686179 -0.06856999 -0.014989659
000200 7c 65 b5 3d c4 48 25 bd 48 8f a1 3d c8 67 60 bc
       0.08857247 -0.040352598 0.07888657 -0.013696618
000210 00 f9 56 3d 20 76 31 bc 78 cc f7 3c 3d 38 39 bd
       0.05248356 -0.010831386 0.030248865 -0.04521965
000220 99 f8 50 bd d0 3d 5b 3c d0 5b b5 bb 69 03 10 bd
       -0.05101833 0.0133814365 -0.0055346265 -0.035159502
000230 00 40 b3 36 78 35 10 3c b6 21 af 3d 8c 5c 90 bd
       5.3420663e-06 0.00880181 0.08551352 -0.07048902
000240 a4 94 9b 3d 40 55 6b bc 5c f4 34 3d 78 52 d6 bc
       0.0759671 -0.014363587 0.04417835 -0.026162371
000250 f0 08 8f 3d 84 f5 99 bd a8 50 29 3d 38 c1 ae bd
       0.069841266 -0.075175315 0.041336685 -0.08532947
000260 7f 05 ac bd d4 7e 8a 3c 28 0d 17 3d 28 1b 65 3d
       -0.08399486 0.01690618 0.03687778 0.0559341
000270 be 4c 98 3d 78 0b 0e 3d 60 f6 c5 3c 60 5b 0c 3c
       0.074365124 0.034678906 0.024165332 0.008566707
000280 58 fd 27 3d 58 86 9b 3c ec d2 b3 bd 5c c1 34 3d
       0.04101309 0.018984959 -0.087804645 0.044129714
000290 46 75 8c 3d 48 2a 9e 3c 31 bc 63 bd 70 53 66 bc
       0.06858306 0.01930727 -0.055599395 -0.014057979
0002a0 e8 dc 69 bc d0 ee 43 bd c0 47 dd 3b 28 5a a2 3d
       -0.01427386 -0.04783517 0.006752938 0.07927352
0002b0 e0 35 ab 3d 52 2d b0 3d 70 58 b8 bc f8 da 93 3d
       0.08359885 0.08602394 -0.022503108 0.07219499
0002c0 10 93 c9 bb 62 35 0e bd 80 02 16 3d d8 c1 2f bd
       -0.0061515644 -0.03471888 0.036623478 -0.042909473
0002d0 a4 80 77 3d f2 77 4e bd 0c 73 5d 3d 94 31 e6 3c
       0.060425416 -0.050407358 0.054064795 0.028099813
0002e0 62 e6 9a bd b0 c1 b1 3d 4d 86 96 bd 30 0c 0d 3c
       -0.07563473 0.08679521 -0.073498346 0.008608863
0002f0 a0 4f c8 3b d4 10 86 3d 9c 6c 4d bd 70 fd 81 3d
       0.0061130077 0.065461785 -0.050152406 0.063471675
000300 92 cf 80 3d c2 7f 9e 3d ac a6 ae bd f6 6b 2a bd
       0.06289591 0.077392116 -0.08527884 -0.041606866
000310 80 51 c5 3c 68 fd 9f 3d 70 f0 68 3d 0c 00 48 3d
       0.024086714 0.07812005 0.056869924 0.04882817
000320 00 7d a2 3b dd 2e 57 bd 40 ac 9c bd 29 88 a4 bd
       0.004958749 -0.052534927 -0.076500416 -0.08033783
000330 e0 e4 38 3b 24 f0 9d 3d 1c a6 4f 3d a4 9a 6a 3d
       0.0028212592 0.07711819 0.050695524 0.057276383
000340 8c c1 01 3d 94 4b ae bc 54 57 f9 3c b2 8e 43 bd
       0.03167872 -0.021276273 0.03043715 -0.047743507
000350 10 e6 4b bc 3c b1 93 bd 0a ba 08 3d da b4 34 bd
       -0.012444988 -0.07211539 0.033380546 -0.044117786
000360 dc 5e b4 3c 80 db b7 3d ca a5 69 bd 94 78 ac 3c
       0.022017889 0.08977413 -0.057042874 0.02105359
000370 a0 41 0f bb 00 82 01 3b 04 53 b1 bc b3 42 1c bd
       -0.0021859184 0.0019761324 -0.02164603 -0.038149547
000380 0e 55 82 bd 00 33 07 bd 94 da 90 3d b4 46 60 3d
       -0.06363879 -0.03300762 0.070729405 0.054754928
000390 38 ca a3 bc f4 86 43 3d d0 bd 05 bc 78 27 db 3c
       -0.019993886 0.047736123 -0.008162931 0.026752219
0003a0 e6 8c ad bd a0 32 16 bc 70 e2 b8 bc 90 1e 9c 3d
       -0.0847414 -0.009167343 -0.022568911 0.07623017
0003b0 64 58 47 3d 50 cb 28 3d 77 1d b1 bd 7f 74 00 bd
       0.04866828 0.04120952 -0.08648198 -0.0313611
0003c0 75 2c 96 bd 48 7a a1 bc ac e8 50 3d f0 84 46 3c
       -0.07332698 -0.019711629 0.051003143 0.012116656
0003d0 e8 e5 66 3c aa 6f 79 bd d8 7f 0d bc 14 e5 b0 3d
       0.0140929 -0.060897507 -0.008636437 0.08637443
0003e0 47 b5 2a bd 2e fe 83 3d 46 7e 97 3d 01 3a 11 bd
       -0.041676786 0.06444965 0.073971316 -0.035455707
0003f0 fb 12 00 bd e0 d1 5b 3d 60 c8 c3 bc 2c 9e 89 bd
       -0.0312681 0.05366695 -0.023899257 -0.06719622

fc2.bias f4 [84]
000000 84 3d a4 bc 9c 3f 2e bd d8 d9 a9 bc 35 6f 7d bd
       -0.020048864 -0.04254113 -0.020733759 -0.061873633
000010 cf fd 36 bd b9 74 81 bd 20 f7 03 bb c0 fa 44 3d
       -0.044675644 -0.06321091 -0.0020136312 0.048090696
000020 74 a2 b6 3d 80 7d 99 3a 80 be 77 3d f4 d2 57 bd
       0.08917704 0.0011710376 0.06048441 -0.052691415
000030 56 40 3b bd 90 b1 57 3d b8 40 6f 3d e6 f4 4f bd
       -0.045715652 0.05265957 0.05841133 -0.050770663
000040 16 97 07 3d e8 53 f7 bc 54 18 06 bd ea 7f 81 3d
       0.03310307 -0.030191377 -0.032738045 0.06323226
000050 ac 3d 39 3d bc dd 9f 3d da 35 84 bd 90 36 f5 bb
       0.04522483 0.07805964 -0.06455584 -0.007483311
000060 68 95 53 3d dc f2 b9 3d 80 38 53 3d 50 f7 42 3c
       0.051656157 0.09079525 0.051567554 0.011899784
000070 ce 56 03 bd 94 c5 a3 3d 5a a8 9b bd ce d5 b5 bd
       -0.032065205 0.079966694 -0.0760047 -0.08878671
000080 e8 ee a3 bd c4 ae 25 3d 40 16 c6 bb cc f8 a5 3d
       -0.08004552 0.040449873 -0.006045133 0.08104095
000090 2c e6 d2 3c fc d9 1a 3d 36 3c 8c 3d 00 33 03 3c
       0.02574452 0.037805542 0.06847422 0.008007765
0000a0 f0 50 88 3b 0e 87 67 bd 20 02 b5 3b f2 93 84 bd
       0.004160039 -0.056525283 0.005523935 -0.06473531
0000b0 d8 7f e2 3c e0 c0 76 bc 39 b6 b1 bd b0 b0 8e bd
       0.027648851 -0.015060633 -0.08677334 -0.06967294
0000c0 48 a6 16 3c 38 6a 90 bc e0 25 90 bc 8e fc b7 3d
       0.009194918 -0.017628774 -0.017596185 0.08983718
0000d0 f2 94 70 bd 99 5f 76 bd e8 5d 85 3d 1f 0d 4c bd
       -0.058735795 -0.060149763 0.06512052 -0.0498172
0000e0 b0 ed 49 3d f8 d9 aa 3d 80 ae ae 3a 84 f6 1c 3d
       0.049298942 0.083423555 0.0013327152 0.038321033
0000f0 94 18 77 3d da 07 7e bd 6c 02 80 3c 40 4b 1a bc
       0.060326174 -0.062019207 0.015626155 -0.009417355
000100 dc 28 76 3d 00 9b 24 3a c8 7e a1 bc c4 7e 61 3d
       0.06009756 0.00062792003 -0.019713774 0.055052534
000110 68 94 c3 bc f4 b7 22 3d 54 ff 54 3d b5 cf a6 bd
       -0.023874477 0.039726213 0.052001312 -0.08145086
000120 04 dd 7e bd 6c 89 ee 3c c0 62 0a bb 6c f8 e1 3c
       -0.062222496 0.029118262 -0.0021115988 0.027584277
000130 f0 05 50 3c 50 cc da 3b 3c a3 02 3d ca b2 8e bd
       0.012696728 0.006677188 0.031893954 -0.06967695
000140 ac 8a 44 bd 64 d9 c1 bc bc 07 ad 3d 00 3b 41 3b
       -0.04798381 -0.02366323 0.08448741 0.002948463

fc3.weight f4 [10, 84]
000000 48 71 65 3c 80 ab f1 ba d8 04 e5 bc 1a d5 0c bd
       0.014004059 -0.0018437952 -0.027956411 -0.034382917
000010 9d 4b d9 bd e4 ed b1 3c 79 ca 99 3d 7e 12 93 bd
       -0.10610125 0.02171988 0.07509322 -0.071812615
000020 20 68 3f 3b 84 8a af bd a5 54 c9 bd df d1 c3 3d
       0.002920635 -0.08571342 -0.09830598 0.09561514
000030 c0 ce 6f 3b e4 40 ab 3c b0 d7 3b bc 11 68 df bd
       0.0036591738 0.020904966 -0.011464998 -0.10908521
000040 98 09 d1 bc 1b 60 9a 3d 62 4b 04 3d c1 74 bc 3d
       -0.02551727 0.07537862 0.032298453 0.092019565
000050 0d c5 cb 3d a9 c6 a2 3d 4d 27 7e bd e4 52 0e bd
       0.09949694 0.07948048 -0.0620492 -0.03474702
000060 bf 75 cc 3d 86 e0 43 bd a3 3f 83 3d ad e9 c9 bd
       0.09983396 -0.047821544 0.06408622 -0.09859023
000070 bc 47 a2 3c 06 0e 0d 3d e8 c2 87 bc 94 6b b9 bc
       0.019809596 0.034437202 -0.01657243 -0.022634305
000080 64 f2 e9 bc 2a f3 7f 3d de 2c 77 3d d0 e5 6a bc
       -0.028557964 0.06248776 0.060345523 -0.014337018
000090 47 fa c8 bd 63 8a bd 3d 00 af 03 ba cb 44 dd 3d
       -0.098133616 0.09254911 -0.00050233305 0.10804137
0000a0 ab 1f db 3d c7 8c b5 bd a0 27 e5 bc db 0d ac 3d
       0.106993996 -0.08864742 -0.027972996 0.0840108
0000b0 83 e6 7f bd 17 56 d4 3d f5 2e 91 3d a0 af cc bd
       -0.062475692 0.10367983 0.070890345 -0.09994435
0000c0 8c 77 ca bc da f4 4b 3d 90 69 ef 3b be 4e 02 3d
       -0.024715208 0.049794056 0.007306285 0.031813376
0000d0 fa 83 4e 3d a5 ae d3 3d 1c dd c9 3c 58 9d 46 bd
       0.05041883 0.10336045 0.024641566 -0.0484899
0000e0 92 f9 ce bd 34 96 b5 bd 0c 51 d8 bc ef 32 98 3d
       -0.101061955 -0.088665396 -0.026405834 0.0743159
0000f0 cc 4b aa bd 00 6e c6 ba 02 83 49 3d 39 23 cf 3d
       -0.08315238 -0.0015138984 0.049197204 0.1011414
000100 9e 82 42 3d 8b 93 be 3d c0 24 78 3c 00 00 c9 39
       0.047487848 0.09305485 0.015145481 0.00038337708
000110 a8 38 0f bc 85 3b b4 3d 4c f0 5a bd d3 d6 ad 3d
       -0.008741535 0.08800415 -0.05345182 0.0848824
000120 6d b5 c1 3d 17 c0 ce 3d c6 fb 78 3d bb 84 d1 bd
       0.09458432 0.10095232 0.060786985 -0.102303945
000130 00 54 9f ba f4 43 d3 3c ff 09 c2 3d 2b 1a 9a bd
       -0.0012155771 0.025789239 0.09474563 -0.075245224
000140 9e b5 64 3d a1 50 db 3d 97 62 b2 3d 20 87 8d bb
       0.055837266 0.10708738 0.08710211 -0.0043190867
000150 71 10 cf bd c5 af c5 3d 90 d4 99 bc d4 8f 84 3c
       -0.10110558 0.09652666 -0.018778116 0.016181864
000160 a4 75 c6 3c b4 76 be bd 34 c6 86 3c b9 5c 5c bd
       0.024226017 -0.092999846 0.016451932 -0.053799365
000170 18 c8 5d bd 79 a1 b3 bd 00 cf a1 b9 cc ae 99 bd
       -0.054145902 -0.08771033 -0.0003086254 -0.07504043
000180 1b 4b ab bd 5c b0 bb bc a0 38 8f bb 39 31 b9 3d
       -0.083639346 -0.022911243 -0.004370764 0.090425916
000190 2c 32 be 3c 9e f4 57 bd ad 6d cb 3d 03 13 bb bd
       0.023217283 -0.05272352 0.09933028 -0.091344856
0001a0 e7 9b c1 3d eb 16 9c 3d de 17 50 3d f8 b7 cb bd
       0.09453564 0.07621559 0.05080401 -0.09947199
0001b0 7a 97 9d bd f0 e2 de bb 0c 60 e0 3c ad 09 92 bd
       -0.076949075 -0.0068019554 0.027389549 -0.07130752
0001c0 a4 33 ab 3c 00 cd e9 b9 13 d4 ae 3d fa 86 1a 3d
       0.020898648 -0.0004459396 0.08536544 0.03772638
0001d0 5c 30 cf 3c 34 0e d6 bc 02 9f bb bd da b5 23 bd
       0.025291614 -0.02612982 -0.09161188 -0.03996835
0001e0 b4 f3 b8 3c 06 68 d5 bd c0 20 c6 3a a0 78 aa bd
       0.022577144 -0.104202315 0.0015115961 -0.08323789
0001f0 d2 ae 39 3d 13 cf 87 3d e6 5d 16 bd 87 84 ca 3d
       0.045332737 0.06631293 -0.036710642 0.09888559
000200 04 b8 ef 3c e0 43 c8 3b ce fe 0f 3d 60 d1 15 bb
       0.02926255 0.006111607 0.03515511 -0.0022860393
000210 fa 3f 78 3d 4d db ac 3d 80 85 10 3b d2 73 1f 3d
       0.060607888 0.08440266 0.0022052228 0.038928814
000220 51 67 a9 bd ec ac 81 3c da 19 57 3d 12 2c 32 bd
       -0.08271659 0.015829526 0.05251489 -0.04349906
000230 20 58 ee bc 30 7d 9b bd 52 c7 45 3d fe 69 2e 3d
       -0.029094756 -0.07592237 0.04828579 0.04258155
000240 41 2e dd 3d 66 c5 08 bd 9c 1f 7a bd 1e 42 74 3d
       0.10799838 -0.03339138 -0.0610653 0.059633367
000250 42 65 00 bd 78 8c bb bc 7e 55 06 3d ac cb f7 3c
       -0.031346567 -0.02289413 0.032796375 0.030248486
000260 90 9e 07 3c 48 28 2d bd 40 24 f5 bc 3d 7e 9d bd
       0.00827755 -0.042274743 -0.029924512 -0.07690094
000270 00 61 40 bb 28 17 0f bc ec d3 aa bd d0 07 d8 bb
       -0.0029354692 -0.008733548 -0.08341202 -0.006592728
000280 24 03 c9 3c fd c1 83 3d 2d 6f 91 3d b4 51 fa 3c
       0.02453763 0.06433485 0.07101283 0.030556537
000290 a3 7b a7 3d 36 ba 5a 3d b0 98 13 3c 51 64 c0 bd
       0.08177879 0.05340024 0.0090085715 -0.09394134
0002a0 17 0d b6 bd ad 18 58 bd 1e f2 7c 3d 5c 41 92 3c
       -0.088892154 -0.052757908 0.06175434 0.017853431
0002b0 21 dd c1 3d 05 e6 54 bd c2 0a a6 bd f4 a5 f8 3c
       0.09466005 -0.051977176 -0.08107521 0.03035257
0002c0 a6 f2 04 3d ae 9b 73 3d 71 35 72 bd 5c 1c b2 3c
       0.03245797 0.05947464 -0.059132997 0.021742038
0002d0 b7 d3 c8 3d 70 dc f0 3b 9b b4 b6 3d 64 00 34 bd
       0.098060064 0.007350497 0.089211665 -0.043945685
0002e0 25 11 94 3d 87 fa 87 bd 37 db d6 3d be b4 1b bd
       0.072298326 -0.06639581 0.10491031 -0.038014166
0002f0 53 ad 7b bd 80 d1 1a 3a 10 46 dd bc d5 f0 8f bd
       -0.06144459 0.0005905852 -0.027010947 -0.07028357
000300 fe a6 9e bd f4 ef b4 3c 09 dc b0 3d f2 9d 84 bd
       -0.07746695 0.022087075 0.086357184 -0.06475438
000310 df 71 df bd 06 06 cc bd 0d e9 a5 3d 48 16 4f 3c
       -0.10910391 -0.099620864 0.081010915 0.01263959
000320 37 1d ab 3d 5e 8a 7a 3d a2 0f 6a bd e3 2a 46 bd
       0.08355182 0.061167113 -0.057143815 -0.048380744
000330 36 76 d1 bd 90 79 31 bd 7d af d6 3d 01 c8 58 bd
       -0.10227625 -0.04332882 0.104826905 -0.052925114
000340 da 22 0a 3d 9c 49 c3 bd 9a d7 15 3d 77 1d 90 3d
       0.033724643 -0.09535524 0.036582567 0.0703687
000350 b3 43 dd bd c0 0f 9d bd cd 2d aa 3d f4 13 b0 bd
       -0.10803928 -0.0766902 0.08309517 -0.08597556
000360 db 23 cf 3d b4 d9 f9 3c df d1 dc 3d eb ae 43 bd
       0.10114261 0.030499317 0.10782217 -0.047774237
000370 f0 cd 80 bd 2a 80 5d bd ef 04 c7 bd 98 7b ed bc
       -0.062892795 -0.054077305 -0.09717738 -0.028989598
000380 d0 f5 0a bc 26 52 34 3d f3 4f be 3d 50 04 d4 bd
       -0.008481458 0.044023655 0.09292593 -0.10352385
000390 f8 ec db bd 6f a9 cf bd 56 b9 10 bd ab 8a a1 3d
       -0.107385576 -0.10139739 -0.035333 0.07887777
0003a0 90 a0 55 bc 7f be 8b 3d 94 62 d0 3c c0 67 6b bc
       -0.013038769 0.068234436 0.02543763 -0.014367998
0003b0 46 45 9a bd a7 e4 b8 3d 5e 33 b1 bd c6 d9 23 bd
       -0.07532744 0.09027987 -0.08652376 -0.040002607
0003c0 e0 d8 7a bd f4 5a 85 bd 82 0e c7 bd f2 fa bb bd
       -0.061241984 -0.065114886 -0.09719564 -0.091787234
0003d0 77 c4 7c bd e8 6e 07 bd 3c 9d aa bc ba ec ac bd
       -0.0617108 -0.033064753 -0.020826928 -0.084435895
0003e0 ee 54 36 3d 4b 3e d4 3d 5e 12 bb bd ce bb 8e bd
       0.04451459 0.10363444 -0.09134363 -0.06969415
0003f0 a0 d8 10 3c 28 f0 13 3c 68 dd 5a 3c 08 ed b5 bd
       0.00884071 0.009029426 0.013358451 -0.08883101

fc3.bias f4 [10]
000000 a0 01 a3 bd de 42 bc bd 52 b9 5e 3d 02 ed 4e bd
       -0.07959294 -0.091924414 0.054375954 -0.050518997
000010 19 a4 a5 3d 6b f0 b9 3d b0 0d 5f bc 4d 89 93 3d
       0.0808794 0.09079059 -0.013614103 0.072039224
000020 88 49 cd bc bb eb 95 3d
       -0.025059476 0.07320353

fc4.weight f4 [2, 10]
000000 12 5c 76 3e 71 60 8f 3e 49 21 8d 3e 02 44 7d be
       0.2405856 0.28003266 0.27564457 -0.24732974
000010 25 83 76 be e8 de 5e bd 4b e5 27 be ca 2a e8 bd
       -0.24073465 -0.0544118 -0.16396062 -0.11336286
000020 0e 76 16 be 23 99 9e 3e 8b eb 95 3e 36 40 5e be
       -0.14693472 0.3097621 0.29281268 -0.21704182
000030 aa c5 3d 3e 80 53 8c 3c ec 56 14 3e 4c 2a 10 3e
       0.18532434 0.01712966 0.14486283 0.14078635
000040 94 58 86 3d b8 ab 20 3d 40 b3 64 3d 68 32 59 be
       0.06559864 0.039226264 0.05583501 -0.21210635

fc4.bias f4 [2]
000000 59 c7 8c be be 5f c8 bd
       -0.2749584 -0.097838864
