sd_net_double.pth (torch_old, 442716 bytes, 14 tensors)

conv1.weight f4 [6, 3, 5, 5]
0	0xbca76e6c	-0.020438395
1	0xbd28fb26	-0.04125514
2	0xb9f64e00	-0.0004697889
3	0xbc7580b0	-0.014984295
4	0xbdd1eabb	-0.102498494
5	0x3cf8aa48	0.030354634
6	0x3d81cdf8	0.063381135
7	0xbda6907c	-0.08133027
8	0x3d249f0c	0.04019074
9	0xbcb0fd68	-0.021605209
10	0xbccac7ec	-0.024753533
11	0x3c454060	0.012039274
12	0x3d214b8c	0.039378688
13	0x3d0e1edc	0.0346974
14	0x3db3b2b2	0.08774318
15	0x3d6441fc	0.05572699
16	0xbde01780	-0.10941982
17	0x3de1d598	0.11027068
18	0x3ac77a80	0.0015219003
19	0x3cf746e0	0.030185163
20	0x3d6688c4	0.056282774
21	0x3d06ad3c	0.032880053
22	0xbc81438c	-0.01577928
23	0xbdab2892	-0.083573475
24	0xbdcc0c52	-0.099632874
25	0xbd812384	-0.06305602
26	0x3d0bed14	0.034161642
27	0xbdb7d526	-0.08976202
28	0xbdc915ad	-0.098185875
29	0xbd31ab04	-0.043375984
30	0xbd827498	-0.06369895
31	0x3dd470e4	0.10373095
32	0x3db34d0e	0.087549314
33	0x3cb510d8	0.022102758
34	0xbd1996f0	-0.03749746
35	0xbd3fd284	-0.046831623
36	0x3dbcb49c	0.09214136
37	0xbd4b01e8	-0.049562365
38	0xbd641f41	-0.05569387
39	0x3d5bedf8	0.05369374
40	0x3db15216	0.08658235
41	0xbdc51bfe	-0.0962448
42	0x3bcd7390	0.0062698796
43	0x3d981232	0.074253455
44	0x3d1157a8	0.035483986
45	0x3d4dff90	0.05029255
46	0xbbac18b0	-0.0052519664
47	0xbba243b0	-0.0049519166
48	0x3d5480a0	0.05188048
49	0x3ce20298	0.027589127
50	0xbcf4f984	-0.029904135
51	0xbd72893a	-0.0592129
52	0x3de3154a	0.11088045
53	0xbcb2ba40	-0.021817327
54	0x3db67948	0.08909851
55	0xbc4cf680	-0.012509942
56	0x3d994bba	0.07485147
57	0x3d97ceb6	0.07412474
58	0xbd8c1de2	-0.06841637
59	0x3c735110	0.01485087
60	0xbb0f2900	-0.0021844506
61	0xbccc7c1c	-0.024961524
62	0x3d852508	0.06501204
63	0x3c348960	0.011019081
64	0x3d096db8	0.0335519
65	0xbcf10160	-0.029419601
66	0xbd10b67a	-0.035330273
67	0xbd8fa486	-0.07013802
68	0xbd23d8c8	-0.04000166
69	0x3caf7ca0	0.02142173
70	0x3ddce772	0.10786332
71	0xbd4e1a7e	-0.050318234
72	0xbd144caa	-0.036205925
73	0xbda23c4c	-0.07921657
74	0x3d3f80e8	0.046753794
75	0x3d8c6fcc	0.06857261
76	0xbd284a06	-0.04108622
77	0xbda498fa	-0.080369905
78	0xbd5e4714	-0.054267004
79	0x3daf02d8	0.08545464
80	0xbd70a376	-0.05874964
81	0xbdb7b1ea	-0.08969481
82	0xbd64c151	-0.055848423
83	0xbdb0d437	-0.08634227
84	0xbd5a07f1	-0.05323023
85	0x3dac8276	0.08423321
86	0xbda084b2	-0.078378096
87	0x3dc60b44	0.096701175
88	0xbdb5c822	-0.08876063
89	0xbd994217	-0.07483309
90	0x3c992c30	0.018697828
91	0x3d48c17c	0.049012646
92	0xbd26a9b8	-0.0406892
93	0xbce251f8	-0.027626976
94	0x3db01ff4	0.085998446
95	0x3b4f15a0	0.0031598583
96	0x3ceacf10	0.028663188
97	0x3b4f7900	0.0031657815
98	0x3dd3b512	0.10337271
99	0x3d375eb0	0.044768035
100	0x3d01e8a4	0.031716004
101	0xbd33c62a	-0.043890156
102	0xbd3b0756	-0.045661293
103	0xbdc94616	-0.09827821
104	0x3de4c546	0.111704394
105	0x3cebb860	0.02877444
106	0x3d01c768	0.03168431
107	0x3d14e7e8	0.036353976
108	0x3de93e38	0.113888204
109	0xbcaaf2b0	-0.020867676
110	0x3c8efef0	0.017455548
111	0xbcd81ce0	-0.026380956
112	0x3b13e900	0.0022569299
113	0x3c8e0008	0.017334
114	0xbdcb5f7a	-0.0993032
115	0xbc8aeea8	-0.016959503
116	0xbc74ba88	-0.014937051
117	0xbd223502	-0.039601333
118	0x3cdd8c88	0.02704455
119	0xbba4e120	-0.00503172
120	0xbd0d4462	-0.034489043
121	0xbb42df40	-0.0029735118
122	0x3cbed4e0	0.023294866
123	0x3dcc3c1e	0.09972404
124	0xbdacaa41	-0.08430911
125	0x3d1e6044	0.038666025
126	0x3de45400	0.11148834
127	0xbd0e5854	-0.034752205
128	0x3a880780	0.0010378212
129	0x3da877ea	0.08225997
130	0x3cfd5c40	0.030927777
131	0xbc054378	-0.008133762
132	0x3d6e9910	0.05825144
133	0xbd2358d4	-0.039879635
134	0x3c699570	0.01425682
135	0x3d432c58	0.04764971
136	0x3d722d0c	0.05912499
137	0x3dc2d484	0.095131904
138	0xbdbf9a6c	-0.093556255
139	0x3d56e0a8	0.052460343
140	0x3d55265c	0.052038535
141	0x3a3edb80	0.0007280633
142	0xbda26ea6	-0.07931261
143	0xbdde2ef6	-0.10848801
144	0x3dbf186a	0.093308285
145	0xbb058740	-0.0020374805
146	0xbd8d314f	-0.068941705
147	0xbd5bb8b6	-0.05364295
148	0xbd40ea06	-0.047098182
149	0x3ddd2226	0.10797529
150	0xbdd43e41	-0.103634365
151	0xbd1e1c74	-0.038601354
152	0xbd43f996	-0.047845446
153	0x3de1e074	0.11029139
154	0x3d9cfa5e	0.07664941
155	0x3dc9e366	0.09857826
156	0x3c834fc8	0.016029254
157	0x3debd442	0.11515094
158	0xbdeb8e19	-0.11501712
159	0x3dd49ca6	0.10381441
160	0xbcf714d8	-0.030161306
161	0x3d1a39f0	0.03765291
162	0xbdd90f5f	-0.10598635
163	0xbdd4b694	-0.103863865
164	0xbdb3a416	-0.08771531
165	0xbd80e998	-0.062945545
166	0xbdd97159	-0.106173225
167	0x3d0cf39c	0.03441201
168	0xbd05468a	-0.032537974
169	0x3d19ab94	0.037517145
170	0xbd5deb99	-0.05417976
171	0xbb6820a0	-0.0035419837
172	0xbde12b2d	-0.10994563
173	0xbd34714e	-0.04405337
174	0xbd5658d0	-0.052330792
175	0x3dc72c26	0.097252175
176	0x3c878880	0.01654458
177	0x3d26c13c	0.040711626
178	0xbda4ca64	-0.080464154
179	0xbd30c976	-0.043160878
180	0x3d959208	0.07303244
181	0xbd634440	-0.05548501
182	0x3dd3d970	0.10344207
183	0xbd9aa660	-0.07551265
184	0x3dcb1708	0.09916502
185	0xbdc0ac85	-0.094079055
186	0xbdafab8b	-0.08577641
187	0x3cf6f040	0.030143857
188	0xbcd662f8	-0.026170239
189	0x3dc7a2b0	0.09747827
190	0x3dc7c3d2	0.09754147
191	0x3d1ae1e0	0.037813067
192	0xbd88ee08	-0.06686026
193	0x3d4ff1b4	0.050767615
194	0xbc3d47f8	-0.011552803
195	0xbd11856c	-0.03552763
196	0xbd05c876	-0.032661878
197	0x3d9b7008	0.07589728
198	0xbcc41ddc	-0.02394002
199	0xbc5814c0	-0.013188541
200	0x3c903318	0.017602488
201	0x3d7c92b4	0.061663345
202	0x3d9ae99c	0.07564089
203	0x3dd4a98e	0.103839025
204	0xbd213000	-0.039352417
205	0x3b9429a0	0.0045215636
206	0x3dbd9c3c	0.09258315
207	0xbbbf91e0	-0.005846247
208	0xbc955e50	-0.018233448
209	0xbd2939de	-0.041314952
210	0xbc624570	-0.0138105005
211	0xbdc674b4	-0.09690228
212	0x3dc9535e	0.09830354
213	0xbd2be0ac	-0.04196231
214	0xbce483e0	-0.027894914
215	0xbde23ed0	-0.11047137
216	0xbd86b91a	-0.06578274
217	0x3d392da8	0.045209557
218	0xbdd86c1c	-0.10567495
219	0xbc99f6c8	-0.018794432
220	0xbb7e28a0	-0.0038781539
221	0x3d8bfd7c	0.06835458
222	0xbdc8d146	-0.09805541
223	0xbd3e3056	-0.046432815
224	0x3d6ad590	0.057332575
225	0xbd9964c2	-0.07489921
226	0x3d222fc8	0.03959635
227	0xbdc6dc61	-0.09710003
228	0x3c746410	0.014916435
229	0x3da8ca12	0.08241667
230	0xbcbd591c	-0.02311378
231	0x3db025e8	0.0860098
232	0xbd96221d	-0.07330725
233	0xbd8294ca	-0.063760355
234	0x3db82e4c	0.089932054
235	0xbdd93ebc	-0.10607669
236	0xbd9107a8	-0.070815384
237	0xbdb2924e	-0.08719312
238	0xbd918b08	-0.07106596
239	0x3d1540cc	0.03643875
240	0xbd3efaa4	-0.04662575
241	0x3d216e98	0.03941211
242	0x3ddbb31e	0.10727523
243	0xbc9515f8	-0.018198952
244	0x3cf4b9b8	0.029873714
245	0xbdebc3e1	-0.1151197
246	0xbd76cfaf	-0.060256656
247	0xbd6728d0	-0.056435406
248	0x3d385da4	0.045011178
249	0xbdad9f88	-0.08477694
250	0x3dcec86e	0.10096823
251	0x3d3d54bc	0.046223387
252	0x3d0f5588	0.03499368
253	0xbd5f4ec9	-0.054518495
254	0x3da63776	0.08116047
255	0x3d43f210	0.04783827

conv1.bias f4 [6]
0	0x3dbbe5c4	0.09174684
1	0x3c6abc80	0.014327168
2	0x3d111a24	0.03542532
3	0x3d0635ec	0.032766268
4	0x3d8eb086	0.06967263
5	0xbcf8d358	-0.030374214

conv2.weight f4 [16, 6, 5, 5]
0	0xbbfcc4c0	-0.007713884
1	0x3b941ec0	0.0045202672
2	0xbcf445c2	-0.02981842
3	0xbc217380	-0.0098541975
4	0xbd00a6c2	-0.031409033
5	0x3c14cab8	0.009081535
6	0x3ab9bc40	0.0014170483
7	0x3c9210e8	0.017830327
8	0xbc904334	-0.01761017
9	0x3d3b8330	0.045779407
10	0xbc5c96e0	-0.013463706
11	0xbd7bc050	-0.0614627
12	0xbd3df1ed	-0.046373297
13	0x3d0c6d4c	0.03428392
14	0xbd8f7cd4	-0.07006231
15	0x3cb87c68	0.022520259
16	0x3d9d6140	0.076845646
17	0xbcd60464	-0.02612514
18	0xbd39592e	-0.045251064
19	0x3b8d7b70	0.0043176934
20	0xbd9f26c7	-0.07771068
21	0x3d604790	0.054755747
22	0x3d8c70aa	0.068574265
23	0x3d04610a	0.032319106
24	0x3d71f61c	0.0590726
25	0xbda68f71	-0.08132828
26	0xbd25b592	-0.040456362
27	0x3d4b5f40	0.049651384
28	0x3d495000	0.04914856
29	0x3cc4ef28	0.02403982
30	0x3d98f6ae	0.074689254
31	0x3da4a8e4	0.08040026
32	0x3d098038	0.033569545
33	0x3ce4f560	0.027949035
34	0x3d5b0498	0.053471178
35	0x3d0f3222	0.03495992
36	0x3d9ec984	0.0775328
37	0x3d77ea9c	0.060526475
38	0xbd9bc325	-0.0760558
39	0x3d8fadf2	0.07015599
40	0xbccb4eec	-0.024817906
41	0x3b51c6c0	0.0032009333
42	0xbcb3990c	-0.021923564
43	0xbcd0fb06	-0.025510322
44	0x3d8f2de4	0.06991175
45	0xbc88b920	-0.016689837
46	0xbd04a90e	-0.032387786
47	0x376e6000	1.4208257e-05
48	0xbbd753a0	-0.006571248
49	0xbc969364	-0.018380828
50	0xbd6d316a	-0.057908453
51	0xbd3116ae	-0.04323452
52	0x3c732010	0.014839187
53	0xbcdf5ef4	-0.027266957
54	0x3d174046	0.03692653
55	0x3d5ef644	0.054434076
56	0xbb75c880	-0.003750354
57	0xbb987f90	-0.0046538785
58	0xbd245d90	-0.04012829
59	0xbcf3c458	-0.02975671
60	0xbd72d108	-0.05928138
61	0x3c577fd0	0.0131530315
62	0xbd41ba33	-0.047296714
63	0xbd3bc0f9	-0.04583833
64	0x3d480ae8	0.048838526
65	0x3d9caf62	0.07650639
66	0xbd44251d	-0.047886956
67	0xbb46bf20	-0.0030326322
68	0xbd395633	-0.04524822
69	0xbd3ee826	-0.046608113
70	0xbd5a8c74	-0.053356603
71	0xbd4f7dca	-0.05065707
72	0xbccfd364	-0.025369354
73	0x3bfae9d0	0.007657267
74	0xbd86c1c0	-0.06579924
75	0xbd5202f2	-0.05127234
76	0x3ad8ce80	0.0016541034
77	0x3cae6614	0.021288909
78	0xbd992678	-0.074780405
79	0xbc9b64b0	-0.01896891
80	0xbc9f87fa	-0.019474018
81	0xbcb229ce	-0.02174845
82	0xbd528fea	-0.05140678
83	0xbd348733	-0.04407425
84	0xbcb00544	-0.021486886
85	0x3cf4d344	0.029885896
86	0x3b394500	0.0028269887
87	0x3d88f562	0.06687428
88	0xbcf15cf4	-0.029463269
89	0x3d74796c	0.05968611
90	0x3d65f2f4	0.0561399
91	0xbbcfdb90	-0.0063433126
92	0x3a8f4b40	0.001093246
93	0xbd314d16	-0.043286406
94	0x3d904bfe	0.07045744
95	0xbcd24c56	-0.025671165
96	0x3d5f8bc0	0.054576635
97	0xbd627a6f	-0.055292543
98	0xbc64def8	-0.0139691755
99	0x3c25c2a0	0.010117203
100	0xbd1e0ec7	-0.03858831
101	0x3d9deebe	0.07711552
102	0xbd832016	-0.06402604
103	0xbd3ed6f1	-0.046591703
104	0xbd669cf8	-0.05630204
105	0x3d256bdc	0.040386066
106	0xbd66d590	-0.056356013
107	0xbd6dae18	-0.058027357
108	0x3da02e7c	0.07821366
109	0xbda3de1f	-0.080013506
110	0x3da1921e	0.07889198
111	0x3da3d85c	0.08000252
112	0xbc9eda64	-0.019391246
113	0xbc2ddd28	-0.01061181
114	0x3c1b9218	0.009495281
115	0xbd1d8a96	-0.038462244
116	0xbd0a75b6	-0.033803664
117	0x3c0e4078	0.008682363
118	0x3d7f716c	0.062364027
119	0xbce9723a	-0.02849685
120	0x3b431400	0.002976656
121	0x3d09c5a4	0.03363575
122	0xbcad342c	-0.021143042
123	0x3d3cffe8	0.04614249
124	0x3d61d1b8	0.055131644
125	0x3d78f704	0.060782447
126	0xbd31e9e5	-0.04343595
127	0xbd505c97	-0.05086955
128	0x3b9760c0	0.004619688
129	0x3d836876	0.06416409
130	0xbd964568	-0.07337457
131	0x3d86b580	0.06577587
132	0xbd884ac2	-0.06654884
133	0xbd18d592	-0.03731305
134	0x3d1928e4	0.037392512
135	0xbcfe0f34	-0.031013109
136	0x3d088140	0.033326387
137	0xbd25b200	-0.040452957
138	0x3c9e2078	0.019302592
139	0xbcbb1378	-0.022836432
140	0xbc8e47b0	-0.017368168
141	0x3d86f758	0.06590146
142	0x3d92220a	0.07135399
143	0x3d692b40	0.056926012
144	0xbcbaf480	-0.022821665
145	0xbc4fa568	-0.012673713
146	0x3ccc3e70	0.024932116
147	0x3d8c82b4	0.06860867
148	0xbd945713	-0.072431706
149	0x3cd834e0	0.0263924
150	0xbd910900	-0.07081795
151	0xbc7c0f88	-0.015384562
152	0xbd97ebbb	-0.07418009
153	0x3d71bd0c	0.05901818
154	0x3ce70214	0.028199233
155	0x3d057fb0	0.032592475
156	0xbd8d54cb	-0.069009386
157	0x3d285752	0.0410989
158	0xba01b880	-0.0004948452
159	0xbd6ad679	-0.057333443
160	0x3cc098fc	0.023510449
161	0x3d15cece	0.036574177
162	0x3d00f55c	0.031483993
163	0xbda58b0d	-0.080831625
164	0xbd994942	-0.07484676
165	0x3d555e34	0.052091792
166	0xbd863a1e	-0.06554054
167	0xbd05ceca	-0.032667913
168	0xbd63e9e6	-0.055642985
169	0xbc399740	-0.011327565
170	0xbcc8cdea	-0.02451225
171	0xbd65fb90	-0.05614811
172	0xbc265130	-0.010151193
173	0xbce8284c	-0.028339528
174	0x3d94018c	0.072268575
175	0xbd4fc84c	-0.050728127
176	0x3ce4cabc	0.027928703
177	0x3d638540	0.055547
178	0xbc5e3080	-0.013561368
179	0x3c891964	0.01673574
180	0xbc2fad18	-0.010722421
181	0xbc4ce768	-0.012506343
182	0x3d5e1f5c	0.054229125
183	0xbd0dc5c6	-0.03461244
184	0xbcd4804a	-0.02594008
185	0xbd8f3efa	-0.06994434
186	0x3c0d0950	0.008608177
187	0x3d2f65ae	0.04282158
188	0xbcfd461e	-0.030917224
189	0xbd300a4c	-0.04297857
190	0x3d666a74	0.056253865
191	0x3d8bb116	0.06820886
192	0xbd48a54b	-0.04898576
193	0x3ce32114	0.027725734
194	0xbccc5bd6	-0.024946135
195	0xbca5f628	-0.020258978
196	0xbd95ba3f	-0.07310914
197	0xbcf9f598	-0.030512616
198	0xbbd98ff0	-0.006639473
199	0x3d19b72e	0.03752821
200	0x3d4456a8	0.047934204
201	0xbd95043e	-0.072762
202	0xbc8b4a38	-0.017003164
203	0xbbf71060	-0.007539794
204	0xbd17ac36	-0.037029468
205	0x3bec2cc0	0.007207483
206	0x3d4cc918	0.049996465
207	0xbd468e4b	-0.048475545
208	0xbda0048a	-0.07813366
209	0xbd85e131	-0.065370925
210	0xbd158a99	-0.03650913
211	0x3d5d7be8	0.054073244
212	0xbc940a88	-0.018071428
213	0x3c5aae58	0.013347231
214	0xbd97f240	-0.074192524
215	0x3d76dabc	0.060267195
216	0x3ce77c30	0.02825746
217	0xbd935d0a	-0.0719548
218	0xbd805337	-0.06265872
219	0xba817780	-0.0009877533
220	0xbd853065	-0.06503371
221	0x3d3202a8	0.043459564
222	0x3b9e4e10	0.004831083
223	0xbd7e68ff	-0.06211185
224	0x3c84dc54	0.016218342
225	0x3ca9aa20	0.020711005
226	0x3d7a6ab0	0.0611369
227	0x3d077f66	0.03308048
228	0xbd648a16	-0.05579575
229	0x3d9d7bc6	0.076896235
230	0x3d7fd0b8	0.06245491
231	0xbd90a7dd	-0.070632674
232	0xbbf5a320	-0.0074962527
233	0xbd0a520a	-0.033769645
234	0xbb1dc7c0	-0.002407536
235	0xbcb33c0c	-0.021879219
236	0xbcd5c9a6	-0.02609713
237	0x3d7e80e0	0.062134624
238	0x3d0d4c9e	0.034496896
239	0xbd1c6962	-0.03818644
240	0x3d44e330	0.048068225
241	0x3d7d450c	0.061833426
242	0x3d892bd0	0.0669781
243	0x3be6ad60	0.007039711
244	0xbd21025f	-0.039308902
245	0x3d3b91d8	0.045793384
246	0x3c96c5c8	0.018404856
247	0xbd7fe374	-0.062472776
248	0x3d8e1eee	0.06939493
249	0xbc4af4b0	-0.01238744
250	0xbd9f7521	-0.077860124
251	0xbd5748e6	-0.052559756
252	0xbc95919c	-0.018257909
253	0x3b96b9d0	0.0045997873
254	0xbc535fd0	-0.012901261
255	0x3c24be38	0.010055117

conv2.bias f4 [16]
0	0xbd8600f8	-0.065431535
1	0xbc5e2ad0	-0.013560012
2	0xbcc27b0c	-0.023740314
3	0x3cd152dc	0.025552206
4	0x3c717590	0.014737502
5	0x3d569418	0.052387327
6	0xbb198f40	-0.002343133
7	0xbd769d12	-0.060208388
8	0xbd339d21	-0.04385102
9	0x3d3f9b14	0.046778753
10	0xbda18018	-0.0788576
11	0xbd5f18c4	-0.054466978
12	0xbd3f9444	-0.046772256
13	0xbd970ff0	-0.07376087
14	0xbd44d95d	-0.048058856
15	0x3c65c2a8	0.01402346

fc1.weight f4 [120, 400]
0	0xbc5acf38	-0.013355069
1	0x3d3a5271	0.04548878
2	0xbd1b3315	-0.037890512
3	0x3b4e6b60	0.0031497106
4	0x3b2d07d0	0.0026402362
5	0xbc680da0	-0.014163405
6	0x3c5ef384	0.013607863
7	0xbd0c6b4d	-0.034282017
8	0xbca64a9a	-0.020299245
9	0xbc355168	-0.011066772
10	0xbc81375c	-0.015773468
11	0xbce222d7	-0.027604504
12	0xbc9bd74d	-0.019023562
13	0xbcb9f16a	-0.022698123
14	0xbd44f112	-0.048081465
15	0xbc5b3ed8	-0.013381682
16	0x3c36d12c	0.011158269
17	0xbd33dc5f	-0.043911334
18	0x3cfa2d3a	0.030539144
19	0xbbcf0f90	-0.006318994
20	0xbcc6f7f7	-0.02428816
21	0x3ccc1f4a	0.024917264
22	0x3bcfc568	0.0063406713
23	0x3ce7bec6	0.02828921
24	0xbbd87ef0	-0.006606929
25	0x3d3918a1	0.045189504
26	0x3d4bc34b	0.049746793
27	0x3d043a07	0.0322819
28	0x3b0ca2e0	0.0021459386
29	0xbcab6a50	-0.020924717
30	0xbd00ba34	-0.031427577
31	0x3d2cd935	0.042199332
32	0x3ce4a4ee	0.027910676
33	0x3d1b93d5	0.03798278
34	0x3d1c6629	0.038183365
35	0x3b84d590	0.004053779
36	0xbc975b50	-0.018476158
37	0x3c92f132	0.017937277
38	0xbb987350	-0.004652418
39	0x3cae98b2	0.021313045
40	0x3c0bd454	0.00853451
41	0xbc9a3750	-0.018825203
42	0x3b9a0428	0.0047002025
43	0xbd205f3e	-0.03915333
44	0x3c18cff8	0.009326927
45	0x3c97ace2	0.018515054
46	0x3c8b1bf2	0.016981099
47	0xbd1a74f6	-0.0377092
48	0x3d353bf7	0.04424664
49	0x3d2b1f47	0.041777875
50	0x3d26ac71	0.040691797
51	0x3d230e65	0.03980865
52	0xbc958bf6	-0.018255215
53	0x3b1c87e0	0.0023884699
54	0x3cfe275a	0.031024624
55	0xbd2465e6	-0.04013624
56	0x3d478d41	0.048718695
57	0x3c6f5d04	0.014609579
58	0x3ccbd762	0.024882976
59	0x3cd3169e	0.02576762
60	0x3c0e606c	0.008689981
61	0xbca5140d	-0.020151163
62	0x3c066a0c	0.0082039945
63	0x3bc6ff30	0.006072901
64	0x3d1d3295	0.038378317
65	0x3c94ad4a	0.018149037
66	0x3d475421	0.048664216
67	0xbd482380	-0.04886198
68	0xbd156872	-0.03647656
69	0x3c158a80	0.009127259
70	0x3c3adbec	0.0114049725
71	0x3ce7179e	0.028209504
72	0xbcd4aa80	-0.025960207
73	0x3d2dbddf	0.042417403
74	0x3d326b11	0.043559138
75	0xbcae8093	-0.021301543
76	0x3bc411a8	0.00598355
77	0x3c0b1af4	0.008490313
78	0xbcfa13d3	-0.030527031
79	0xbd23436e	-0.039859228
80	0x3bf99be8	0.0076174624
81	0x3d10b057	0.03532442
82	0x3cee69be	0.029103156
83	0xbd16fa1b	-0.036859613
84	0xbcd4bd20	-0.025969088
85	0x3d452b91	0.04813725
86	0x3d231295	0.039812643
87	0xbcc3c113	-0.023895776
88	0x3bf90f40	0.007600695
89	0x3cb44ad6	0.02200834
90	0xbc374014	-0.011184711
91	0xbc2fefb4	-0.010738302
92	0xbd00b920	-0.03142655
93	0x3c788124	0.015167508
94	0x3b31a0e0	0.0027103946
95	0xbd24dfbe	-0.04025244
96	0xbbbd7768	-0.0057820566
97	0x3d3d7159	0.046250675
98	0xbca082d3	-0.019593632
99	0xbb9c51f0	-0.00477051
100	0xbc3003ec	-0.010743123
101	0xbcd53e73	-0.026030755
102	0x3d014b01	0.03156567
103	0xbcbf9250	-0.023385197
104	0x3d33ac41	0.043865446
105	0x3d188233	0.037233543
106	0x3c6129e4	0.013742898
107	0x39222a00	0.0001546517
108	0x3d38680b	0.045021098
109	0x3bbc0a68	0.005738545
110	0x3c2313ac	0.009953421
111	0xbc07daec	-0.008291941
112	0x3cafd622	0.021464411
113	0x3c861182	0.01636577
114	0xbd236ac3	-0.039896738
115	0x3c86d622	0.016459528
116	0xbbaa7558	-0.0052019767
117	0x3cfb2ab6	0.030660015
118	0xbc1f3548	-0.009717293
119	0x3cd69a4e	0.026196625
120	0x3ce906ca	0.02844562
121	0x3ce18172	0.027527545
122	0xbd34413d	-0.04400753
123	0x3cd8e472	0.026476119
124	0x3c65d684	0.014028195
125	0xbca662c3	-0.020310765
126	0x3c3f72a0	0.011685044
127	0x3d107141	0.035264257
128	0x3c286ae0	0.010279387
129	0xbd4899b5	-0.04897471
130	0xbd0e1bb5	-0.034694392
131	0x3d1b790d	0.03795724
132	0xbd19cb7a	-0.037547566
133	0xbd1eec6b	-0.038799684
134	0xbcc2247d	-0.02369904
135	0x3d2859a3	0.04110111
136	0x3c6d09fc	0.0144677125
137	0x3c9cb97a	0.01913141
138	0x3d0867f1	0.03330225
139	0x3bd40450	0.0064702407
140	0xbba6a780	-0.0050858855
141	0xbd221273	-0.039568376
142	0x3cd084ea	0.025454003
143	0x3d094bed	0.033519674
144	0xbbc62e30	-0.0060479864
145	0xbcafbe53	-0.021453058
146	0x3c061a80	0.008185029
147	0x3d3ac10f	0.04559427
148	0xbd1d3f26	-0.0383903
149	0xbd426598	-0.04746017
150	0xbd39737f	-0.04527616
151	0x3d3ea7af	0.046546634
152	0xbd171196	-0.036882006
153	0xbd17d2ee	-0.037066393
154	0x3b97c0e8	0.0046311505
155	0xbd103f68	-0.03521672
156	0xbd06a992	-0.03287656
157	0x3c3f0ba8	0.011660494
158	0xbc4b4a2c	-0.012407821
159	0x3caeac9e	0.021322545
160	0x3bc965a8	0.0061461516
161	0xbbf01150	-0.0073262826
162	0x3d10ca8b	0.03534941
163	0x3d26584b	0.040611546
164	0x3d40ec4f	0.04710036
165	0x3cefb9aa	0.029263336
166	0x3bafa770	0.0053605363
167	0x3d37f417	0.044910517
168	0xbcf14953	-0.029453909
169	0xbbef1270	-0.007295899
170	0x3c00d8b4	0.007864166
171	0xbc80b53a	-0.015711416
172	0xbc341134	-0.01099043
173	0x3d42cc17	0.047557916
174	0xbcc57943	-0.024105674
175	0xbcea3887	-0.028591407
176	0xbb99a3d8	-0.004688721
177	0xbd247ef3	-0.04016013
178	0xbd05bec0	-0.032652617
179	0xbd419e73	-0.04727025
180	0xbc0b9d48	-0.0085213855
181	0x3cf94ec6	0.03043307
182	0x3c0a08b4	0.008424927
183	0x3cfaa2f6	0.030595284
184	0xbce6891d	-0.028141553
185	0x3cce553e	0.025187131
186	0xb964fe00	-0.00021838397
187	0x3b3c0700	0.0028690696
188	0xbd190e18	-0.037366956
189	0x3c960aea	0.018315751
190	0xbd048c24	-0.03236021
191	0x3cb3dc82	0.021955732
192	0xbbbb4828	-0.005715389
193	0x3cf623a2	0.030046288
194	0x3cba803e	0.022766229
195	0x3d26c097	0.04071101
196	0x3d170199	0.036866758
197	0xbd00a2c6	-0.031405233
198	0xbc98fb9a	-0.01867466
199	0xbcc0e1f7	-0.023545248
200	0x3c9036f6	0.017604332
201	0xba08f600	-0.0005224645
202	0x3d17a881	0.037025932
203	0xbc8f2a56	-0.017476242
204	0xbb5b0c30	-0.0033424012
205	0x3d048807	0.03235629
206	0x3cf6df72	0.030135844
207	0x3a53d200	0.00080803037
208	0xbd174516	-0.03693112
209	0xbc93dc5c	-0.018049411
210	0xbbf6c470	-0.0075307414
211	0xbcc34f0d	-0.023841405
212	0xbd334430	-0.0437662
213	0xbc945fbc	-0.018112056
214	0x3d120a09	0.0356541
215	0xbc51398c	-0.012770068
216	0x3c87f25e	0.016595062
217	0x3d2337eb	0.03984825
218	0x3cc5f60a	0.024165172
219	0xba72c480	-0.0009260848
220	0xbc46c16c	-0.012131076
221	0xbbdeb868	-0.0067968853
222	0xbc03a294	-0.008034367
223	0x3ce035ae	0.027369346
224	0xbbb05a90	-0.0053818896
225	0xbc559a28	-0.013037242
226	0x3b905cf0	0.0044056103
227	0x3b0ebe60	0.0021780953
228	0xbcca7d9a	-0.024718095
229	0x3d46485d	0.048408855
230	0x3c6363b4	0.013878752
231	0x3c9203a2	0.017823998
232	0xbc8adc76	-0.016950827
233	0x3c59cfe4	0.013294194
234	0xbbd7afe8	-0.006582249
235	0xbd495f1f	-0.04916298
236	0xbd23bb58	-0.039973587
237	0x3d0bcd7f	0.034131523
238	0x3cf2f87a	0.029659498
239	0xbcc5df20	-0.024154246
240	0xbca7528a	-0.0204251
241	0x3c74b5e4	0.014935944
242	0xbc8ac226	-0.01693828
243	0x3d475153	0.04866154
244	0xbd0f5198	-0.034989923
245	0x3a8a90a0	0.0010571666
246	0xbd4c6e77	-0.049910035
247	0xbcc87397	-0.02446918
248	0xbc9b71d7	-0.018975182
249	0x3d492581	0.049108032
250	0xbd0466ca	-0.03232459
251	0x3d0025c5	0.03128602
252	0x3c977766	0.01848955
253	0xba51bac0	-0.0008000545
254	0x3d407f55	0.046996433
255	0x3ba34910	0.004983075

fc1.bias f4 [120]
0	0xbd089dac	-0.033353493
1	0xbd336402	-0.043796547
2	0xbd29707e	-0.041367047
3	0xbc86cae0	-0.01645416
4	0xbbddeaf0	-0.0067723915
5	0x3d447631	0.04796428
6	0x3b969a70	0.004596047
7	0xbd156410	-0.03647238
8	0xbc41dc4c	-0.011832308
9	0xbc599908	-0.013281114
10	0xbc55d920	-0.013052255
11	0x3d011d61	0.03152216
12	0xbc4c8d14	-0.0124848075
13	0x3ca2fb0a	0.019895095
14	0x3d3171d3	0.04332144
15	0xbcf01a1d	-0.029309327
16	0x3d3ee7e1	0.046607856
17	0x3cc94ba6	0.024572205
18	0xbce8ae23	-0.028403347
19	0x3b7fc5d0	0.0039027818
20	0xbca979a3	-0.020687884
21	0xbbb0c3e8	-0.0053944476
22	0x3c2f1df4	0.010688294
23	0x3c9f6b7e	0.019460436
24	0xbd1725c3	-0.036901247
25	0xbcdebd50	-0.02718988
26	0x3d2a7af5	0.041621167
27	0xbc150a60	-0.009096712
28	0x3bbae958	0.0057040863
29	0xbc44b548	-0.012006111
30	0x3cb06922	0.021534506
31	0x3cc7a262	0.024369422
32	0x3cca11f6	0.024666768
33	0xbc4c94d4	-0.012486655
34	0x3bacbe50	0.0052717105
35	0xbd07b360	-0.03313005
36	0xbc7d53f8	-0.015461914
37	0x3d1c67a7	0.038184788
38	0x3cce4876	0.025181036
39	0x3d2d9845	0.042381544
40	0xbb97db10	-0.0046342686
41	0x3b508400	0.003181696
42	0x3a32c8c0	0.0006820075
43	0x3cfad9fa	0.030621517
44	0x3d2e114d	0.042496968
45	0xbca255e7	-0.019816352
46	0x3b754d50	0.0037430115
47	0xbcfe6af3	-0.031056857
48	0xbbd28b28	-0.00642528
49	0xbccf62fd	-0.025315756
50	0x3c9866fa	0.01860379
51	0x3cf7196a	0.030163486
52	0x3d30d45d	0.043171275
53	0xbd48029d	-0.048830617
54	0x3bd37a58	0.0064537935
55	0x3c810082	0.015747312
56	0x3c8b48e6	0.017002534
57	0x3d1b0183	0.03784324
58	0xbd41e202	-0.04733468
59	0x3cc9e99e	0.02464753
60	0x3d234037	0.039856162
61	0xbc6c328c	-0.014416348
62	0xbd154e38	-0.03645155
63	0xbaa4fc40	-0.0012587383
64	0xbcef04f7	-0.029177172
65	0x3cd0089a	0.025394727
66	0x3aded260	0.0016999952
67	0x3c537164	0.012905452
68	0xbbcceda8	-0.006253917
69	0xbc04318c	-0.0080684535
70	0xbc7b5b2c	-0.015341561
71	0x3b66c260	0.0035211071
72	0x3ca78e0a	0.020453472
73	0x3cf65fc2	0.030074958
74	0x3d19db01	0.037562374
75	0x3bf41b70	0.00744956
76	0xbd39f4ef	-0.045399603
77	0x3ce04fa2	0.027381722
78	0x3cdad41e	0.026712473
79	0xbc496d60	-0.012294143
80	0x3ca6136e	0.020272937
81	0xbc550ad4	-0.01300307
82	0x3cab6f52	0.020927105
83	0x3c02db34	0.007986832
84	0xbd2f9e93	-0.042875838
85	0x3cb28f12	0.021796737
86	0x3ae4b5a0	0.0017449148
87	0xbaf6e460	-0.0018836372
88	0xbbba3c50	-0.0056834593
89	0xbc6d8860	-0.014497846
90	0x3bdfc9c0	0.0068294704
91	0x3ca1096a	0.01965781
92	0xbc9cbc5d	-0.019132787
93	0xbd33ce8a	-0.043898143
94	0x3d3d38b7	0.046196666
95	0xbc8be98c	-0.017079137
96	0x3cf0630a	0.0293441
97	0x3d42914b	0.047501843
98	0x3d137181	0.035996918
99	0x3b425950	0.0029655285
100	0xbc6d1c48	-0.014472075
101	0x3c5fd8c4	0.013662521
102	0xbc5c0660	-0.013429254
103	0x3d4167d1	0.047218148
104	0x3cc9ed42	0.024649266
105	0x3d387b27	0.045039322
106	0x3d031753	0.032004666
107	0xbcc84f20	-0.024451792
108	0xbb0008b0	-0.0019536428
109	0xbc98d200	-0.018654823
110	0xbbad4d50	-0.0052887574
111	0xbce73887	-0.028225197
112	0x3c5055fc	0.012715813
113	0x3c7163c4	0.014733259
114	0xbd47985a	-0.04872928
115	0xbce51f9a	-0.02796917
116	0xbd035f2c	-0.032073185
117	0xbb68ea60	-0.003554009
118	0xbd140d1e	-0.036145322
119	0x3ce63ca2	0.028105084

fc2.weight f4 [84, 120]
0	0xbcae9c68	-0.021314815
1	0xbd5e0ca5	-0.054211278
2	0xbdaccb5a	-0.08437224
3	0x3d90b59e	0.07065891
4	0xbcd123ec	-0.025529824
5	0xbd550775	-0.052009065
6	0x3d8a7c0a	0.0676194
7	0xbd70f134	-0.05882378
8	0x3d8ff540	0.070291996
9	0xb6914000	-4.3287873e-06
10	0x3cf25c88	0.029585138
11	0x3bd56280	0.0065119863
12	0xbbc2a6e0	-0.005940303
13	0x3c4a17d0	0.012334779
14	0x3c2e6618	0.010644458
15	0x3dbaae42	0.09115268
16	0x3d1490f4	0.03627105
17	0x3d438818	0.04773721
18	0xbd4f8798	-0.05066642
19	0xbd76234a	-0.060092248
20	0xbd834b90	-0.06410897
21	0xb9aef900	-0.00033373386
22	0xbdb9fa23	-0.09080913
23	0x3d152b70	0.03641838
24	0x3d84ba4e	0.06480847
25	0x3d4542b0	0.0481593
26	0x3cc446d4	0.023959555
27	0x3c232f20	0.009959966
28	0x3c89ba90	0.016812593
29	0x3d60ba04	0.0548649
30	0xbd1b943d	-0.037983168
31	0xbdb32a10	-0.08748257
32	0x3db7259a	0.08942719
33	0x3d99469a	0.07484169
34	0x3cc78ef4	0.024360158
35	0xbd03dc07	-0.032192256
36	0xbda20e1c	-0.079128474
37	0x3d5ade44	0.053434625
38	0x3da056f4	0.07829085
39	0xbb316060	-0.00270655
40	0xbd6cc8f2	-0.057808824
41	0x3b88b070	0.0041714236
42	0x3cb8fa14	0.022580184
43	0x3d89ebe0	0.06734443
44	0x3daa0cae	0.083032
45	0x3d88ff06	0.06689267
46	0x3c94a184	0.018143423
47	0xbbe622f0	-0.007023208
48	0xbce7ef00	-0.028312206
49	0x3d002696	0.0312868
50	0x3d9ea454	0.07746187
51	0xbd80011c	-0.062502116
52	0xb9852400	-0.0002539456
53	0x3da9be00	0.08288193
54	0xbc05d360	-0.0081680715
55	0xbcb0f9a0	-0.021603405
56	0xbda1b9cd	-0.07896767
57	0x3c968e4c	0.0183784
58	0xbcb85574	-0.022501685
59	0xbd9fecd0	-0.0780884
60	0x3d113d2c	0.03545873
61	0x3aadd900	0.0013263524
62	0xbcde089c	-0.027103715
63	0x3db461fa	0.0880775
64	0x3c8a6d30	0.016897768
65	0x3d951200	0.07278824
66	0x3d44a4b8	0.04800865
67	0xbd89a1a8	-0.067202866
68	0x3cafb458	0.0214483
69	0xbd16a1c1	-0.036775354
70	0x3da1a206	0.07892232
71	0x3d5a2a10	0.05326277
72	0x383e4000	4.5359135e-05
73	0x3d38d63c	0.045126185
74	0x3da71528	0.08158332
75	0x3dacc016	0.08435075
76	0x3da8800c	0.08227548
77	0x3c0ceb40	0.00860101
78	0x3db6bd3e	0.08922814
79	0x3daf6e5c	0.08565971
80	0xbd6974b3	-0.05699606
81	0x3d9e633c	0.07733771
82	0xbda3b2bb	-0.079930745
83	0xba885f80	-0.0010404438
84	0xbd9972ca	-0.074925974
85	0x3d0a7220	0.033800244
86	0xbc26c2c8	-0.010178275
87	0x3d3d8d7c	0.04627751
88	0x3a450c80	0.0007516816
89	0xbd2e5351	-0.042559925
90	0xbdb82020	-0.08990502
91	0x3d382c14	0.04496391
92	0xbd782107	-0.060578372
93	0x3b853c70	0.0040660426
94	0xbb7f73c0	-0.0038978904
95	0x3bb31800	0.0054655075
96	0x3d2255cc	0.039632604
97	0xbb547d40	-0.0032423288
98	0xbcb8b4f0	-0.022547215
99	0xbd4dae88	-0.050215274
100	0x3d872242	0.06598331
101	0xbdb84829	-0.089981385
102	0x3d865fea	0.06561263
103	0x3d95d2c0	0.07315588
104	0xbd8f79f0	-0.070056796
105	0xbcd5097c	-0.026005499
106	0x3db4c334	0.088262945
107	0xbd8b0602	-0.06788255
108	0xbd6555a9	-0.055989895
109	0x3a397280	0.0007074252
110	0xbda0c7d2	-0.07850613
111	0xbda9e4fd	-0.08295629
112	0xbd8a2dbe	-0.06747006
113	0x3db7cbea	0.089744404
114	0x3dad90fc	0.08474919
115	0xbd4702b0	-0.048586547
116	0x3c02d480	0.007985234
117	0x3db70876	0.08937161
118	0xbd9d126c	-0.07669529
119	0xbd848500	-0.0647068
120	0x3d914106	0.0709248
121	0xbd29660f	-0.041357096
122	0xbcc290cc	-0.023750685
123	0x3d09542e	0.033527546
124	0x3d73c288	0.05951169
125	0x3d8b1e7e	0.06792925
126	0xbd97537b	-0.073889695
127	0xbbf13850	-0.0073614493
128	0x3d310578	0.043218106
129	0x3db75d64	0.0895336
130	0xbc8d3b00	-0.017240047
131	0x3dafb1c2	0.085788265
132	0x3cb45b24	0.022016115
133	0xbd1a9ff1	-0.03775019
134	0x3d3e71bc	0.046495184
135	0x3bb33ef0	0.005470149
136	0x3c8d9914	0.017284907
137	0x3d8b0926	0.06788854
138	0xbc83ba3c	-0.016080014
139	0x3c4df6a8	0.012571014
140	0x3daea5a0	0.08527684
141	0xbcd2cebc	-0.025733344
142	0x3d619b20	0.05507958
143	0xbd1480a2	-0.036255486
144	0x3d07d3fc	0.03316115
145	0x3d921d9a	0.07134552
146	0x3d6245b0	0.05524224
147	0x3bde5950	0.006785549
148	0x3d73d258	0.05952677
149	0x3d1075b8	0.035268515
150	0x3d320d48	0.043469697
151	0xbd4a7f71	-0.049437944
152	0xbc695b90	-0.014243022
153	0xbcdeb8a8	-0.02718766
154	0x3c6ee9d8	0.01458212
155	0xbd892b4f	-0.066977136
156	0xbbbf6140	-0.0058404505
157	0x3d3a6428	0.045505673
158	0xbd4d7f1c	-0.05017005
159	0xbd95c7f2	-0.07313527
160	0x3d82f6e2	0.063947454
161	0x3db3c71c	0.087782115
162	0xbd8c3aa2	-0.06847121
163	0xbca9fe28	-0.020751074
164	0xbd7854e1	-0.06062782
165	0x3d7f9e9c	0.06240712
166	0xbd9eb70c	-0.07749757
167	0x3da73320	0.08164048
168	0x3cf65dcc	0.030074023
169	0x3d1a88b4	0.037728027
170	0xbd923316	-0.0713865
171	0xbd0d94cf	-0.034565743
172	0xbd55eb61	-0.052226428
173	0xbcaa1b34	-0.020764925
174	0xbdad3e54	-0.08459154
175	0xbd9c8514	-0.0764257
176	0xbd37a8ff	-0.0448389
177	0x3d9ce528	0.076608956
178	0xbce6b2b4	-0.028161384
179	0xbb9f1eb0	-0.004855953
180	0xbd996660	-0.074902296
181	0xbdb91373	-0.09036913
182	0x3d10af28	0.035323292
183	0x3c244798	0.010026835
184	0xbbb60ea0	-0.0055559427
185	0x3cf9ad78	0.030478224
186	0xbdb7cfcb	-0.0897518
187	0xbd0055df	-0.031331893
188	0xbda7e1a3	-0.08197334
189	0xbd066af7	-0.032816853
190	0xbc5ecf78	-0.013599269
191	0x3d70da14	0.058801726
192	0x3cdf1f58	0.027236626
193	0xbb36c240	-0.0027886778
194	0x3d2f7074	0.042831853
195	0x3c734720	0.0148485005
196	0xbda4ad2e	-0.08040844
197	0x3da1028e	0.078618154
198	0xbcbce5fc	-0.023058884
199	0x3da75518	0.08170527
200	0x3d73e200	0.059541702
201	0xbd4b1e6b	-0.049589556
202	0x3bffc5e0	0.007805571
203	0xbd8d66e3	-0.0690439
204	0xbbb93880	-0.0056524873
205	0x3d1c309c	0.038132295
206	0x3d8cccc4	0.068749934
207	0x3d4c6be8	0.049907595
208	0x3db74244	0.08948186
209	0x3d805096	0.062653705
210	0xbda95e8e	-0.08269988
211	0xbc9836d0	-0.018580824
212	0xbd68bbc9	-0.05681971
213	0x3d3c39bc	0.045953497
214	0xbd780c48	-0.060558587
215	0xbd796bc0	-0.060893774
216	0xbb968a20	-0.0045941025
217	0x3b5dc780	0.0033840835
218	0xbc89bdbc	-0.016814105
219	0x3c9b7910	0.018978626
220	0xbd145338	-0.036212176
221	0xbcaf3438	-0.021387205
222	0xbcddafec	-0.027061425
223	0xbd0add9d	-0.033902753
224	0x3d962f2e	0.073332176
225	0x3ccca82c	0.024982534
226	0xbda08e32	-0.078396216
227	0x3c0d56c8	0.008626647
228	0x3c5683b8	0.013092928
229	0x3da11768	0.078657925
230	0x3d8d9d54	0.069147736
231	0xbd9e9a6a	-0.07744296
232	0xbd819284	-0.06326774
233	0xbd9a48c9	-0.07533414
234	0x3da9eff6	0.08297722
235	0x3d1e52f0	0.038653314
236	0xbcfa79b8	-0.030575618
237	0xbd5773a0	-0.052600503
238	0x3b966630	0.0045898184
239	0xbd103d29	-0.035214577
240	0x3d0d0df8	0.03443715
241	0xbd50509b	-0.05085812
242	0x3cea9ddc	0.028639726
243	0x3bf1b5e0	0.0073764175
244	0x3bca1d40	0.0061680377
245	0xbaac8640	-0.0013162568
246	0x3d00d584	0.031453624
247	0x3c8d8438	0.01727496
248	0x3d91ba64	0.07115629
249	0x3d036a48	0.03208378
250	0xbd81de9e	-0.06341289
251	0x3d61ab74	0.05509515
252	0x3d812bb4	0.06307164
253	0xbda945d0	-0.08265269
254	0x3d9d9d46	0.07696013
255	0x3d997da4	0.07494667

fc2.bias f4 [84]
0	0xbd544287	-0.051821258
1	0x3d604c44	0.054760233
2	0x3db5a766	0.08869819
3	0x3da5bf52	0.08093132
4	0xbd00a98c	-0.031411693
5	0xbd6d26d8	-0.057898372
6	0xbd2cbe06	-0.042173408
7	0xbd14ce61	-0.03632963
8	0x3db5afca	0.0887142
9	0xbcdcf724	-0.026973315
10	0xbd496b40	-0.049174547
11	0xbda8bb15	-0.08238808
12	0x3d6e7c98	0.05822429
13	0x3d3a8528	0.045537144
14	0xbda29f53	-0.07940545
15	0x3d72f650	0.059316933
16	0xbca287a0	-0.019840062
17	0xbdb0dd6a	-0.086359814
18	0x3d2e982c	0.04262559
19	0x3d7bd0ac	0.061478302
20	0xbd8b094c	-0.067888826
21	0x3c6fb218	0.014629863
22	0x3d8dd224	0.06924847
23	0x3d89a0aa	0.06720097
24	0x3c85c88c	0.01633098
25	0xbcba9810	-0.022777587
26	0xbd00f60c	-0.03148465
27	0xbd039f00	-0.032134056
28	0xbbf902c0	-0.007599205
29	0x3d9c5024	0.07632473
30	0xbd896742	-0.06709148
31	0x3d8c2534	0.068430334
32	0x3d58bf50	0.052916825
33	0xbcfc4e9e	-0.030799206
34	0x3d745854	0.05965455
35	0xbcdf2238	-0.027237996
36	0xbdb9cce0	-0.0907228
37	0xbbfae380	-0.0076565146
38	0xbc8a6468	-0.01689358
39	0xbd80a54f	-0.0628153
40	0x3dba937e	0.09110163
41	0xbd9d4066	-0.07678299
42	0xbce550a0	-0.027992547
43	0xbd4bc9e3	-0.04975308
44	0xbd6a43c0	-0.057193518
45	0x3da33430	0.07968938
46	0x3d54590c	0.051842734
47	0x3dafe61e	0.08588813
48	0xbc1dd4d0	-0.009633258
49	0xbd530f90	-0.051528513
50	0xbbe1eb20	-0.006894484
51	0xbd6266ff	-0.055274006
52	0xbd2b6478	-0.04184386
53	0xbcc3b1f0	-0.023888558
54	0x3daee6ba	0.08540101
55	0xbda0da34	-0.07854119
56	0x3dbad786	0.09123139
57	0x3d7dbcb8	0.061947554
58	0xbb1d10a0	-0.0023966208
59	0xbdaf64c7	-0.08564144
60	0x3d488628	0.048956066
61	0xbd524213	-0.051332545
62	0xbd9803f9	-0.07422633
63	0x3d458350	0.048220932
64	0x3daf0df8	0.08547586
65	0xbd9e219a	-0.07721253
66	0xbd568786	-0.05237534
67	0x3d3c82bc	0.046023116
68	0x3c9f8940	0.019474626
69	0x3cb8aa00	0.022542
70	0xbc566008	-0.013084419
71	0x3da300e6	0.07959156
72	0x3dab4dd2	0.083644524
73	0x3cf409b8	0.02978979
74	0x3db2bff8	0.087280214
75	0xbd807fb4	-0.062743574
76	0xbda66a81	-0.08125783
77	0xbd08edbe	-0.033429854
78	0xbd3c2852	-0.04593689
79	0x3d58c32c	0.052920505
80	0xbd8b8bb7	-0.06813758
81	0x3d32e054	0.043670967
82	0x3d1d17b0	0.03835267
83	0x3da6429c	0.081181735

fc3.weight f4 [10, 84]
0	0x3d9389d9	0.07204027
1	0xbdd11b05	-0.10210232
2	0x3c5a56c8	0.013326354
3	0x3d87fbed	0.06639848
4	0xbd9564db	-0.07294627
5	0x3d240bce	0.04005032
6	0xbb621e00	-0.0034502745
7	0xbd69c590	-0.057073176
8	0xbd2c5fd4	-0.042083576
9	0x3dabe8ef	0.08394038
10	0xbdbfa7f8	-0.09358209
11	0x3cfc6214	0.030808486
12	0xbdbdd73d	-0.09269569
13	0x3d215a2e	0.039392643
14	0xbdcb080c	-0.09913644
15	0xbd0dc13a	-0.034608103
16	0xbdc2eba6	-0.095176026
17	0x3da15d33	0.078791045
18	0x3bd5e840	0.0065279305
19	0xbcb2da0c	-0.021832488
20	0x3d49ade2	0.049238093
21	0x3ddd10cf	0.107942216
22	0xbd88b05c	-0.06674263
23	0xbdafafec	-0.08578476
24	0x3d29b5ba	0.041433074
25	0x3d92200d	0.071350195
26	0xbbfebf60	-0.0077742785
27	0x3d01273a	0.03153155
28	0xbc204d20	-0.009784013
29	0x3d662cba	0.056195
30	0xbd756ea2	-0.05991996
31	0xbdd5abbb	-0.104331456
32	0x3d14a3e2	0.036289103
33	0xbd87dc92	-0.06633867
34	0xbdd929ef	-0.10603701
35	0xbdb90e15	-0.09035889
36	0xbc29ee30	-0.01037173
37	0x3d9894fb	0.07450291
38	0xbd8d6399	-0.06903762
39	0xbd9c2cca	-0.0762573
40	0xbdd790be	-0.10525654
41	0x3da3027d	0.07959459
42	0x3c2448e0	0.01002714
43	0xbd7a2785	-0.061072845
44	0x3d786262	0.0606407
45	0xbdbe8448	-0.093025744
46	0xbda7db5c	-0.08196136
47	0x3d8a15fd	0.06742475
48	0x3d8e7fdf	0.06957983
49	0x3d83e165	0.06439475
50	0xbd888ab0	-0.066670775
51	0x3b8e38b0	0.004340254
52	0x3ce03c5c	0.027372532
53	0x3d791b4a	0.06081704
54	0x3bd58300	0.0065158606
55	0xbdabdec5	-0.08392099
56	0x3dcfeafd	0.10152242
57	0xbd6340ba	-0.05548165
58	0x3db26759	0.08711118
59	0x3d845843	0.06462147
60	0x3d24f486	0.04027226
61	0xbdaa974e	-0.0832964
62	0x3cc7377c	0.02431845
63	0x3d9ae3ef	0.07563006
64	0x3cc95eb4	0.02458129
65	0xbdb682ef	-0.08911692
66	0x3dc49d69	0.09600336
67	0x3d196bda	0.03745637
68	0x3d0cb0aa	0.034348167
69	0xbda3e163	-0.080019735
70	0xbd0d1344	-0.0344422
71	0x3da28831	0.07936133
72	0xbd16b5a2	-0.036794312
73	0x3d60356e	0.054738455
74	0xbdbd3333	-0.09238281
75	0x3c862354	0.016374268
76	0x3d5e9d76	0.054349385
77	0xbda0e02d	-0.07855258
78	0x3d217cf2	0.039425798
79	0xbb90e910	-0.0044223145
80	0x3dbe4827	0.09291106
81	0xbdbc6a89	-0.092000075
82	0x3d99e5a7	0.07514506
83	0xbbb2c9b0	-0.005456172
84	0x3cba9c04	0.022779472
85	0xbdaf400b	-0.08557137
86	0xb9f4cd00	-0.00046692044
87	0xbd2b71fc	-0.04185675
88	0x3c4657e8	0.012105919
89	0x3ca9b07c	0.020714037
90	0xbdad7e04	-0.08471301
91	0x3c983ecc	0.018584631
92	0x3daceddb	0.08443805
93	0xbd842691	-0.064526685
94	0xbd618f16	-0.055068098
95	0xbc93c7ac	-0.018039547
96	0x3dae6ab5	0.085164465
97	0x3d7855ca	0.06062869
98	0x3cd340e4	0.025787778
99	0xbd4614d5	-0.04835971
100	0x3d96166b	0.07328495
101	0xbddc5944	-0.107592136
102	0x3b3fad20	0.0029247478
103	0x3c9d962c	0.019236647
104	0xbc596958	-0.013269745
105	0x3dd996a9	0.10624439
106	0x3d7808be	0.060555212
107	0x3d051026	0.032486103
108	0xbc5174d8	-0.012784205
109	0x3dc61edd	0.096738555
110	0xbd9e367a	-0.07725234
111	0xbdcfbe7c	-0.10143754
112	0xbd9abe68	-0.07555848
113	0xbc9e1e78	-0.019301638
114	0xbcac708c	-0.02104976
115	0x3d0b0faa	0.033950485
116	0x3d161ca2	0.0366484
117	0xbc9efac0	-0.019406676
118	0x3dd492fb	0.10379597
119	0xbdc6fcf6	-0.09716217
120	0x3d84af15	0.06478707
121	0x3db8caef	0.090230815
122	0xbd8eb074	-0.069672495
123	0xbcc0959c	-0.02350884
124	0x3d221856	0.03957399
125	0x399d7c00	0.0003003776
126	0xbdccafa4	-0.09994438
127	0x3dca0453	0.09864106
128	0x3d86c807	0.06581121
129	0xbd8f50e3	-0.0699785
130	0x3d620146	0.055176996
131	0xbdcfe112	-0.10150351
132	0xbd9e292a	-0.07722695
133	0xbd26615e	-0.0406202
134	0xbca642a4	-0.020295449
135	0xbdd83a6b	-0.10558017
136	0x3d8bae65	0.068203725
137	0xbd1ac1b0	-0.03778237
138	0x3d7dc236	0.061952792
139	0xbd9e6308	-0.077337325
140	0x3dd3c765	0.10340766
141	0x3cffda34	0.031231977
142	0x3d9a4fc7	0.075347476
143	0xbd3007d2	-0.042976208
144	0x3cc37174	0.02385781
145	0x3dbccab5	0.09218351
146	0xbc8a2028	-0.016861036
147	0x3d4ac43a	0.049503542
148	0xbd08af24	-0.033370152
149	0x3b860f00	0.0040911436
150	0x3da9fa9f	0.08299755
151	0xbcfa6014	-0.030563392
152	0x3da780cf	0.08178865
153	0xbcdd5f38	-0.027022943
154	0x3dd639a7	0.10460215
155	0x3d071972	0.03298325
156	0xbd9a22d4	-0.07526174
157	0x3d01cd3a	0.03168986
158	0xbcae5474	-0.021280505
159	0xbd5a0706	-0.053229354
160	0xbda5aef4	-0.0809001
161	0xbd8b61b6	-0.06805746
162	0x3daf5817	0.08561724
163	0x3da24dcb	0.07924994
164	0x3d5ad5ea	0.05342666
165	0xbd23ca06	-0.039987586
166	0xbdd7240c	-0.10504922
167	0xbc4191d8	-0.011814557
168	0x3d5eb4c6	0.054371618
169	0x3dbb6f39	0.091520734
170	0xbdda9603	-0.10673144
171	0xba1fd080	-0.00060964376
172	0x3dd0941d	0.101845
173	0x3be49780	0.006976068
174	0x3d35fc0a	0.044429816
175	0xbdccad3f	-0.099939816
176	0xbd89cb5e	-0.06728242
177	0xbdce9305	-0.100866355
178	0xbcd91f20	-0.0265041
179	0xbd8d4050	-0.06897032
180	0xbd969ce4	-0.07354143
181	0xbd8a825c	-0.06763145
182	0xbd038d64	-0.032117262
183	0x3d6829ae	0.056680374
184	0x3bb89340	0.005632788
185	0x3d5ac612	0.05341155
186	0x3d31158a	0.043233432
187	0xbda65c0d	-0.08123026
188	0x3c96a7d4	0.018390574
189	0xbd2c75d8	-0.042104572
190	0x3b811de0	0.003940329
191	0xbd94a74e	-0.07258473
192	0x3daaef2b	0.08346399
193	0xbc46aa30	-0.012125537
194	0xbc406020	-0.011741668
195	0x3c8ce9f4	0.017201401
196	0xbd677c66	-0.05651512
197	0x3d342632	0.04398174
198	0xbce62928	-0.028095797
199	0x3dd97893	0.10618701
200	0xbc38fcc8	-0.0112907365
201	0x3d65f10e	0.05613809
202	0x3c876a1c	0.01653009
203	0x3c48eb70	0.012263164
204	0xbd88a28c	-0.06671628
205	0x3ce2c28c	0.027680658
206	0x3dd86645	0.10566381
207	0x3d1670c6	0.036728643
208	0x3d2af9aa	0.041742004
209	0xbd9ce348	-0.07660538
210	0xbc283a10	-0.010267749
211	0x3d3304ee	0.043705873
212	0xbd2dc5e6	-0.04242506
213	0xbacf9a80	-0.0015838891
214	0xbdabeabb	-0.08394381
215	0xbd9d47cc	-0.0767971
216	0xbd7d7d45	-0.061887044
217	0xbce843d4	-0.028352655
218	0x3d16f15a	0.036851265
219	0x3d18481a	0.037178136
220	0x3c87e024	0.01658637
221	0x3dd1fc4d	0.10253201
222	0x3d7dbdce	0.06194859
223	0x3dba3f05	0.09094051
224	0xbd3fa9f4	-0.04679294
225	0x3d5ec5ba	0.054387785
226	0xbaab1a00	-0.0013054013
227	0x3cd9018c	0.026489995
228	0xbd9aff6a	-0.075682476
229	0xbd0c665c	-0.034277305
230	0x3d94c585	0.07264236
231	0x3d6d5bee	0.057949
232	0xbddf2943	-0.10896542
233	0xbd92474e	-0.071425065
234	0xbdb059b6	-0.08610861
235	0xbdd54408	-0.104133666
236	0xbd96080a	-0.07325752
237	0x3d75dc1e	0.060024373
238	0x3b8dc490	0.0043264106
239	0xbd6f476a	-0.058417715
240	0x3c97d6dc	0.01853507
241	0xbc901818	-0.017589614
242	0xbb2366e0	-0.0024933144
243	0xbdd234d2	-0.10263981
244	0xbdc8beaa	-0.09801991
245	0x3c79a868	0.015237905
246	0xbc1d4658	-0.009599291
247	0xbdb587af	-0.0886377
248	0x3ddacce5	0.10683612
249	0xbbcfec20	-0.006345287
250	0x3da6eb61	0.08150364
251	0x3d8948c3	0.06703331
252	0x3ca4f46c	0.02013608
253	0x3d867497	0.065652065
254	0x3d8d09ab	0.0688661
255	0x3d55e016	0.052215658

fc3.bias f4 [10]
0	0xbc5f0e90	-0.013614312
1	0xbd5b3e34	-0.05352612
2	0x3d58fef6	0.052977525
3	0xbcc57c04	-0.024106987
4	0x3d8156b5	0.06315366
5	0x3d887c47	0.06664329
6	0x3cec0eec	0.028815709
7	0x3dc41f89	0.09576327
8	0x3dca3063	0.0987251
9	0xbda65bc9	-0.081229754

fc4.weight f4 [2, 10]
0	0xbc264b00	-0.010149717
1	0x3e043b62	0.12913278
2	0x3e0d1304	0.13776785
3	0xbe3b430b	-0.18287294
4	0xbdd8c8a0	-0.10585141
5	0x3dd10b70	0.1020726
6	0xbd9d5092	-0.07681383
7	0x3e194b90	0.14970231
8	0x3d2c6bc0	0.042094946
9	0x3e159736	0.14608464
10	0xbe060c5b	-0.1309065
11	0x3e6f73d6	0.23384032
12	0xbdb93726	-0.09043722
13	0xbe29e21a	-0.16590157
14	0xbbe94c40	-0.0071196854
15	0xbdd1ccbc	-0.10244128
16	0x3e4263ee	0.18983433
17	0x3e7e07ca	0.24807659
18	0xbe9a6b0e	-0.301598
19	0xbdb15bce	-0.086600885

fc4.bias f4 [2]
0	0xbe0eb3c5	-0.13935764
1	0xbe653f51	-0.22387435

fc1.weight f4 [120, 400]
0	0x3c81edd6	0.01586048
1	0xbcef6fe7	-0.029228164
2	0x3d0985fd	0.033575047
3	0xbd4408b5	-0.047859866
4	0xbc9c5970	-0.019085616
5	0xbb5ca300	-0.0033666492
6	0x3c44b3ec	0.012005787
7	0x3c525424	0.0128374435
8	0x3b5a95a0	0.0033353344
9	0xbc7ade28	-0.015311755
10	0xbd1b86c3	-0.037970316
11	0x3c4092c0	0.011753738
12	0xbc8bdc8c	-0.017072938
13	0x3c51cfac	0.0128058605
14	0x3c8a47b6	0.016879898
15	0xbd3e39fd	-0.04644202
16	0xbc8b7fe6	-0.01702876
17	0x3d387bb7	0.04503986
18	0x3b3385a0	0.002739288
19	0x3d0ba165	0.034089465
20	0xbd3a6c5d	-0.0455135
21	0x3d043bef	0.03228372
22	0xbd4bfe45	-0.049803037
23	0x3d0b45bf	0.034002062
24	0xbd213ec6	-0.039366506
25	0x3d037d63	0.032102
26	0xbb39cc30	-0.0028350465
27	0xbd345b17	-0.044032183
28	0x3d022ecb	0.031782907
29	0x3b1174e0	0.0022194907
30	0x3b926898	0.004468035
31	0xbccd23a7	-0.025041414
32	0x3d174f51	0.036940876
33	0xbcad15d0	-0.021128565
34	0xbcd3c010	-0.025848418
35	0xbba3d550	-0.004999794
36	0xbc55b858	-0.013044439
37	0xbd31230b	-0.04324631
38	0xbc9ad0c7	-0.01889838
39	0xbd07b7e8	-0.03313437
40	0x3d38cf17	0.04511937
41	0xbd025c5d	-0.031826366
42	0xbd1e8f58	-0.038710922
43	0x3c1da2ac	0.0096213035
44	0xbc270328	-0.010193624
45	0x3c0920cc	0.008369636
46	0x3b2e19e0	0.0026565716
47	0x3c1ca528	0.009560861
48	0xbce98823	-0.028507298
49	0x3ca8a5fa	0.020586956
50	0x3d308a5f	0.04310071
51	0x3c2edc98	0.010672711
52	0xbccbdf5a	-0.024886776
53	0x3d49f9fd	0.049310673
54	0xbc7938f8	-0.015211336
55	0xbc22fda8	-0.009948172
56	0x3d4c26cb	0.049841683
57	0xbc732178	-0.014839523
58	0x3d175ea1	0.03695548
59	0xbc137608	-0.009000309
60	0x39f2ce80	0.0004631169
61	0xba8f2200	-0.0010920167
62	0x3d0c5777	0.0342631
63	0x3c9c0066	0.019043159
64	0xbd3efa93	-0.046625685
65	0xb998c100	-0.00029135495
66	0xbbacf770	-0.0052785203
67	0xbcb1752a	-0.021662313
68	0xbcc8a6b7	-0.024493558
69	0xbcf1198a	-0.029431123
70	0x3d318133	0.043336105
71	0xbc84a5c0	-0.016192317
72	0x3bbdb810	0.005789764
73	0xbc807700	-0.015681744
74	0x3cbc13d2	0.02295867
75	0xbd2985d0	-0.04138738
76	0xbc533b78	-0.012892596
77	0xbc07cd58	-0.008288704
78	0x3cd01376	0.025399905
79	0xbc51dfe0	-0.012809724
80	0x39d4ad00	0.00040564686
81	0x3b704920	0.003666468
82	0x3d327fd5	0.04357894
83	0x3be7de40	0.007076055
84	0xbc9ddbea	-0.019269902
85	0x3d3a8b75	0.045543153
86	0xbd34e89f	-0.044167157
87	0x3aca4ea0	0.0015434809
88	0x3c907092	0.017631803
89	0x3d2dacb1	0.04240102
90	0x3d10901b	0.03529368
91	0x3c6e8f64	0.014560554
92	0x3d2e9135	0.04261895
93	0xbd071fea	-0.03298942
94	0x3ccfea26	0.025380205
95	0x3d2a08fd	0.04151248
96	0xba9fd9a0	-0.0012195595
97	0x3cf371ba	0.029717315
98	0xbd3db76f	-0.046317514
99	0xbc9d5500	-0.01920557
100	0xbcc9a763	-0.024615949
101	0xbcf7c57a	-0.030245531
102	0x3cc3e8fe	0.02391481
103	0xbc92183a	-0.017833818
104	0xbc1bf8e8	-0.009519793
105	0xbcdba8da	-0.026813913
106	0x3cf73376	0.030175906
107	0xbd43776a	-0.047721304
108	0x3ccbe83a	0.024891008
109	0x3ca9651e	0.0206781
110	0x3cbc1dba	0.022963393
111	0x3ccf9e72	0.025344107
112	0x3b3e8e50	0.0029076524
113	0x3d2e6e59	0.042585704
114	0x3cc4d80e	0.024028804
115	0xba83b260	-0.0010047667
116	0xbb6caa60	-0.0036112294
117	0x3ce4633e	0.027879354
118	0xbd287d1e	-0.041134946
119	0x3ca71396	0.020395081
120	0xbcbae400	-0.022813797
121	0xbd0b4fbe	-0.034011595
122	0x3d0a0e93	0.033705305
123	0xbcf60c80	-0.030035257
124	0xbca7fcfd	-0.020506376
125	0x3cef0c42	0.02918065
126	0x3c6ac01c	0.014328029
127	0xbbc50210	-0.0060122088
128	0xbc863914	-0.016384639
129	0xbc592434	-0.01325326
130	0xbcbae1dd	-0.022812778
131	0xbc8fae7a	-0.017539252
132	0xbc147f58	-0.009063564
133	0x3bb77818	0.005599033
134	0x3c66db8c	0.01409043
135	0x3d35f29f	0.044420835
136	0x3cd8142e	0.02637681
137	0xbce6db9a	-0.028180886
138	0x3cd7324e	0.026269104
139	0x3c4335b4	0.011914659
140	0x3d0ae859	0.03391299
141	0xbd347c07	-0.044063594
142	0x3aa4a840	0.001256235
143	0x3d34190f	0.04396921
144	0x3c36bfd4	0.011154134
145	0xbb5a0ae0	-0.0033270642
146	0x3cac601a	0.021041919
147	0x3bf94b50	0.007607855
148	0x3b477920	0.0030437186
149	0x3d06b687	0.032888915
150	0x3d00d4ad	0.031452823
151	0xbb044e00	-0.0020188093
152	0x3d0b84c3	0.03406216
153	0xbcc29767	-0.023753835
154	0x3d0b2f2b	0.03398053
155	0xbd377f80	-0.044799328
156	0xbcf92d9a	-0.030417252
157	0xbbdcdf68	-0.0067404993
158	0xbb4ab820	-0.00309325
159	0x3ce0e1ea	0.027451474
160	0xbb43e2d0	-0.002988983
161	0xbce3c5f3	-0.02780435
162	0x3c9f22be	0.019425746
163	0x3d199219	0.037492845
164	0x3bbb4f10	0.005716212
165	0xbd432e6f	-0.047651704
166	0x3bdea4b0	0.0067945346
167	0x3c24428c	0.010025632
168	0xbce3696a	-0.027760226
169	0x3cb602c6	0.02221812
170	0x3d3b2513	0.045689654
171	0x3d4ac547	0.049504545
172	0x3cb13e52	0.021636162
173	0x3c82b06a	0.015953261
174	0xbd204a78	-0.03913352
175	0x3c96b24e	0.01839557
176	0x3c47faa0	0.01220575
177	0x3babb190	0.005239673
178	0x3d12fdf1	0.03588671
179	0xbcf1aeb3	-0.029502248
180	0xbbec9b98	-0.0072206967
181	0x3d0fc1e3	0.035097014
182	0xbce2309d	-0.027611071
183	0x3d4005cf	0.04688054
184	0x3d24acf9	0.040204022
185	0x3d3c31ed	0.04594605
186	0xbcc2953d	-0.023752803
187	0xbcd51680	-0.026011705
188	0x3b4713b0	0.0030376725
189	0xbd1cab55	-0.038249332
190	0xba729800	-0.0009254217
191	0xbcd28b83	-0.02570129
192	0xb81a4000	-3.6776066e-05
193	0xbd298cb5	-0.041393954
194	0x3cc57ce2	0.0241074
195	0x3d32f431	0.04368991
196	0xbab37a60	-0.0013693087
197	0x3cc5fd0e	0.024168517
198	0xbd059a98	-0.032618135
199	0xba24e940	-0.00062908605
200	0xbc5b566c	-0.013387304
201	0x3b5b5580	0.003346771
202	0x3ce72472	0.02821562
203	0x3d12efe1	0.035873298
204	0xbd2dc72a	-0.042426266
205	0x3abe53c0	0.0014520809
206	0x3cf23726	0.029567312
207	0x3c6b364c	0.014356207
208	0x3d1478e5	0.036248107
209	0xbcba5e77	-0.022750122
210	0xbd325f37	-0.043547835
211	0x3d2b1ed1	0.041777436
212	0x3ccdf90a	0.025143165
213	0x3c80b4d2	0.015711222
214	0xbd0ef92d	-0.0349056
215	0xbb8ba010	-0.0042610243
216	0x3c89b22e	0.016808596
217	0x3ce53562	0.027979556
218	0xbd048ab0	-0.032358825
219	0x3c0da42c	0.008645099
220	0x3bf85af0	0.0075792
221	0xbd45a2c2	-0.04825092
222	0xbbd207b0	-0.006409608
223	0xbc8a6730	-0.016894907
224	0x3ce640b6	0.028107028
225	0x3cb2d0fe	0.02182817
226	0x3d11190b	0.035424273
227	0x3d3ad82b	0.04561631
228	0x3d12b0d5	0.03581317
229	0x3d3bcc95	0.0458494
230	0x3ccdf232	0.025139902
231	0xbc6c6fa0	-0.01443091
232	0xbc8ba686	-0.017047178
233	0x3c741754	0.01489814
234	0xbd24c106	-0.040223144
235	0xbc38a6cc	-0.011270236
236	0xbd144120	-0.03619492
237	0xbb49f1d0	-0.0030814297
238	0xbc84f0ac	-0.016228043
239	0xbc26b260	-0.010174364
240	0xbcda3a70	-0.026639193
241	0xbb48d150	-0.0030642338
242	0xbd02c32c	-0.03192441
243	0x3bbf4500	0.005837083
244	0x3cea6e1a	0.028616954
245	0x3b342380	0.002748698
246	0x3ce3a7aa	0.02778991
247	0x3c27b194	0.010235209
248	0x3d0dfe85	0.034666557
249	0x3d243fe9	0.040100012
250	0xba2a6200	-0.00064995885
251	0xbd0073c2	-0.031360395
252	0xbd42057b	-0.047368508
253	0x3c38d7c8	0.011281915
254	0x3d0e71e1	0.034776572
255	0x3ced7906	0.028988373
